…
snapshot_prefix: "vgg_cnn_m_1024_faster_rcnn"
average_loss: 100
I0129 12:58:50.657397 22967 solver.cpp:81] Creating training net from train_net file: models/pascal_voc/VGG_CNN_M_1024/faster_rcnn_end2end/train.prototxt
I0129 12:58:50.657752 22967 net.cpp:58] Initializing net from parameters: 
name: "VGG_CNN_M_1024"
state {
  phase: TRAIN
}
layer {
  name: "input-data"
  type: "Python"
  top: "data"
  top: "im_info"
  top: "gt_boxes"
  python_param {
    module: "roi_data_layer.layer"
    layer: "RoIDataLayer"
    param_str: "\'num_classes\': 2"
  }
}
layer {
  name: "conv1"
  type: "Convolution"
  bottom: "data"
  top: "conv1"
  param {
    lr_mult: 0
    decay_mult: 0
  }
  param {
    lr_mult: 0
    decay_mult: 0
  }
  convolution_param {
    num_output: 96
    kernel_size: 7
    stride: 2
  }
}
layer {
  name: "relu1"
  type: "ReLU"
  bottom: "conv1"
  top: "conv1"
}
layer {
  name: "norm1"
  type: "LRN"
  bottom: "conv1"
  top: "norm1"
  lrn_param {
    local_size: 5
    alpha: 0.0005
    beta: 0.75
    k: 2
  }
}
layer {
  name: "pool1"
  type: "Pooling"
  bottom: "norm1"
  top: "pool1"
  pooling_param {
    pool: MAX
    kernel_size: 3
    stride: 2
  }
}
layer {
  name: "conv2"
  type: "Convolution"
  bottom: "pool1"
  top: "conv2"
  param {
    lr_mult: 1
  }
  param {
    lr_mult: 2
  }
  convolution_param {
    num_output: 256
    pad: 1
    kernel_size: 5
    stride: 2
  }
}
layer {
  name: "relu2"
  type: "ReLU"
  bottom: "conv2"
  top: "conv2"
}
layer {
  name: "norm2"
  type: "LRN"
  bottom: "conv2"
  top: "norm2"
  lrn_param {
    local_size: 5
    alpha: 0.0005
    beta: 0.75
    k: 2
  }
}
layer {
  name: "pool2"
  type: "Pooling"
  bottom: "norm2"
  top: "pool2"
  pooling_param {
    pool: MAX
    kernel_size: 3
    stride: 2
  }
}
layer {
  name: "conv3"
  type: "Convolution"
  bottom: "pool2"
  top: "conv3"
  param {
    lr_mult: 1
  }
  param {
    lr_mult: 2
  }
  convolution_param {
    num_output: 512
    pad: 1
    kernel_size: 3
  }
}
layer {
  name: "relu3"
  type: "ReLU"
  bottom: "conv3"
  top: "conv3"
}
layer {
  name: "conv4"
  type: "Convolution"
  bottom: "conv3"
  top: "conv4"
  param {
    lr_mult: 1
  }
  param {
    lr_mult: 2
  }
  convolution_param {
    num_output: 512
    pad: 1
    kernel_size: 3
  }
}
layer {
  name: "relu4"
  type: "ReLU"
  bottom: "conv4"
  top: "conv4"
}
layer {
  name: "conv5"
  type: "Convolution"
  bottom: "conv4"
  top: "conv5"
  param {
    lr_mult: 1
  }
  param {
    lr_mult: 2
  }
  convolution_param {
    num_output: 512
    pad: 1
    kernel_size: 3
  }
}
layer {
  name: "relu5"
  type: "ReLU"
  bottom: "conv5"
  top: "conv5"
}
layer {
  name: "rpn_conv/3x3"
  type: "Convolution"
  bottom: "conv5"
  top: "rpn/output"
  param {
    lr_mult: 1
  }
  param {
    lr_mult: 2
  }
  convolution_param {
    num_output: 256
    pad: 1
    kernel_size: 3
    stride: 1
    weight_filler {
      type: "gaussian"
      std: 0.01
    }
    bias_filler {
      type: "constant"
      value: 0
    }
  }
}
layer {
  name: "rpn_relu/3x3"
  type: "ReLU"
  bottom: "rpn/output"
  top: "rpn/output"
}
layer {
  name: "rpn_cls_score"
  type: "Convolution"
  bottom: "rpn/output"
  top: "rpn_cls_score"
  param {
    lr_mult: 1
  }
  param {
    lr_mult: 2
  }
  convolution_param {
    num_output: 18
    pad: 0
    kernel_size: 1
    stride: 1
    weight_filler {
      type: "gaussian"
      std: 0.01
    }
    bias_filler {
      type: "constant"
      value: 0
    }
  }
}
layer {
  name: "rpn_bbox_pred"
  type: "Convolution"
  bottom: "rpn/output"
  top: "rpn_bbox_pred"
  param {
    lr_mult: 1
  }
  param {
    lr_mult: 2
  }
  convolution_param {
    num_output: 36
    pad: 0
    kernel_size: 1
    stride: 1
    weight_filler {
      type: "gaussian"
      std: 0.01
    }
    bias_filler {
      type: "constant"
      value: 0
    }
  }
}
layer {
  name: "rpn_cls_score_reshape"
  type: "Reshape"
  bottom: "rpn_cls_score"
  top: "rpn_cls_score_reshape"
  reshape_param {
    shape {
      dim: 0
      dim: 2
      dim: -1
      dim: 0
    }
  }
}
layer {
  name: "rpn-data"
  type: "Python"
  bottom: "rpn_cls_score"
  bottom: "gt_boxes"
  bottom: "im_info"
  bottom: "data"
  top: "rpn_labels"
  top: "rpn_bbox_targets"
  top: "rpn_bbox_inside_weights"
  top: "rpn_bbox_outside_weights"
  python_param {
    module: "rpn.anchor_target_layer"
    layer: "AnchorTargetLayer"
    param_str: "\'feat_stride\': 16"
  }
}
layer {
  name: "rpn_loss_cls"
  type: "SoftmaxWithLoss"
  bottom: "rpn_cls_score_reshape"
  bottom: "rpn_labels"
  top: "rpn_cls_loss"
  loss_weight: 1
  propagate_down: true
  propagate_down: false
  loss_param {
    ignore_label: -1
    normalize: true
  }
}
layer {
  name: "rpn_loss_bbox"
  type: "SmoothL1Loss"
  bottom: "rpn_bbox_pred"
  bottom: "rpn_bbox_targets"
  bottom: "rpn_bbox_inside_weights"
  bottom: "rpn_bbox_outside_weights"
  top: "rpn_loss_bbox"
  loss_weight: 1
  smooth_l1_loss_param {
    sigma: 3
  }
}
layer {
  name: "rpn_cls_prob"
  type: "Softmax"
  bottom: "rpn_cls_score_reshape"
  top: "rpn_cls_prob"
}
layer {
  name: "rpn_cls_prob_reshape"
  type: "Reshape"
  bottom: "rpn_cls_prob"
  top: "rpn_cls_prob_reshape"
  reshape_param {
    shape {
      dim: 0
      dim: 18
      dim: -1
      dim: 0
    }
  }
}
layer {
  name: "proposal"
  type: "Python"
  bottom: "rpn_cls_prob_reshape"
  bottom: "rpn_bbox_pred"
  bottom: "im_info"
  top: "rpn_rois"
  python_param {
    module: "rpn.proposal_layer"
    layer: "ProposalLayer"
    param_str: "\'feat_stride\': 16"
  }
}
layer {
  name: "roi-data"
  type: "Python"
  bottom: "rpn_rois"
  bottom: "gt_boxes"
  top: "rois"
  top: "labels"
  top: "bbox_targets"
  top: "bbox_inside_weights"
  top: "bbox_outside_weights"
  python_param {
    module: "rpn.proposal_target_layer"
    layer: "ProposalTargetLayer"
    param_str: "\'num_classes\': 2"
  }
}
layer {
  name: "roi_pool5"
  type: "ROIPooling"
  bottom: "conv5"
  bottom: "rois"
  top: "pool5"
  roi_pooling_param {
    pooled_h: 6
    pooled_w: 6
    spatial_scale: 0.0625
  }
}
layer {
  name: "fc6"
  type: "InnerProduct"
  bottom: "pool5"
  top: "fc6"
  param {
    lr_mult: 1
  }
  param {
    lr_mult: 2
  }
  inner_product_param {
    num_output: 4096
  }
}
layer {
  name: "relu6"
  type: "ReLU"
  bottom: "fc6"
  top: "fc6"
}
layer {
  name: "drop6"
  type: "Dropout"
  bottom: "fc6"
  top: "fc6"
  dropout_param {
    dropout_ratio: 0.5
  }
}
layer {
  name: "fc7"
  type: "InnerProduct"
  bottom: "fc6"
  top: "fc7"
  param {
    lr_mult: 1
  }
  param {
    lr_mult: 2
  }
  inner_product_param {
    num_output: 1024
  }
}
layer {
  name: "relu7"
  type: "ReLU"
  bottom: "fc7"
  top: "fc7"
}
layer {
  name: "drop7"
  type: "Dropout"
  bottom: "fc7"
  top: "fc7"
  dropout_param {
    dropout_ratio: 0.5
  }
}
layer {
  name: "cls_score"
  type: "InnerProduct"
  bottom: "fc7"
  top: "cls_score"
  param {
    lr_mult: 1
  }
  param {
    lr_mult: 2
  }
  inner_product_param {
    num_output: 2
    weight_filler {
      type: "gaussian"
      std: 0.01
    }
    bias_filler {
      type: "constant"
      value: 0
    }
  }
}
layer {
  name: "bbox_pred"
  type: "InnerProduct"
  bottom: "fc7"
  top: "bbox_pred"
  param {
    lr_mult: 1
  }
  param {
    lr_mult: 2
  }
  inner_product_param {
    num_output: 8
    weight_filler {
      type: "gaussian"
      std: 0.001
    }
    bias_filler {
      type: "constant"
      value: 0
    }
  }
}
layer {
  name: "loss_cls"
  type: "SoftmaxWithLoss"
  bottom: "cls_score"
  bottom: "labels"
  top: "loss_cls"
  loss_weight: 1
  propagate_down: true
  propagate_down: false
}
layer {
  name: "loss_bbox"
  type: "SmoothL1Loss"
  bottom: "bbox_pred"
  bottom: "bbox_targets"
  bottom: "bbox_inside_weights"
  bottom: "bbox_outside_weights"
  top: "loss_bbox"
  loss_weight: 1
}
I0129 12:58:50.657893 22967 layer_factory.hpp:77] Creating layer input-data
I0129 12:58:50.674008 22967 net.cpp:100] Creating Layer input-data
I0129 12:58:50.674026 22967 net.cpp:408] input-data -> data
I0129 12:58:50.674033 22967 net.cpp:408] input-data -> im_info
I0129 12:58:50.674036 22967 net.cpp:408] input-data -> gt_boxes
RoiDataLayer: name_to_top: {'gt_boxes': 2, 'data': 0, 'im_info': 1}
I0129 12:58:50.684026 22967 net.cpp:150] Setting up input-data
I0129 12:58:50.684056 22967 net.cpp:157] Top shape: 1 3 700 1000 (2100000)
I0129 12:58:50.684059 22967 net.cpp:157] Top shape: 1 3 (3)
I0129 12:58:50.684062 22967 net.cpp:157] Top shape: 1 4 (4)
I0129 12:58:50.684063 22967 net.cpp:165] Memory required for data: 8400028
I0129 12:58:50.684067 22967 layer_factory.hpp:77] Creating layer data_input-data_0_split
I0129 12:58:50.684078 22967 net.cpp:100] Creating Layer data_input-data_0_split
I0129 12:58:50.684080 22967 net.cpp:434] data_input-data_0_split <- data
I0129 12:58:50.684085 22967 net.cpp:408] data_input-data_0_split -> data_input-data_0_split_0
I0129 12:58:50.684092 22967 net.cpp:408] data_input-data_0_split -> data_input-data_0_split_1
I0129 12:58:50.684119 22967 net.cpp:150] Setting up data_input-data_0_split
I0129 12:58:50.684123 22967 net.cpp:157] Top shape: 1 3 700 1000 (2100000)
I0129 12:58:50.684125 22967 net.cpp:157] Top shape: 1 3 700 1000 (2100000)
I0129 12:58:50.684126 22967 net.cpp:165] Memory required for data: 25200028
I0129 12:58:50.684128 22967 layer_factory.hpp:77] Creating layer im_info_input-data_1_split
I0129 12:58:50.684131 22967 net.cpp:100] Creating Layer im_info_input-data_1_split
I0129 12:58:50.684132 22967 net.cpp:434] im_info_input-data_1_split <- im_info
I0129 12:58:50.684135 22967 net.cpp:408] im_info_input-data_1_split -> im_info_input-data_1_split_0
I0129 12:58:50.684139 22967 net.cpp:408] im_info_input-data_1_split -> im_info_input-data_1_split_1
I0129 12:58:50.684161 22967 net.cpp:150] Setting up im_info_input-data_1_split
I0129 12:58:50.684165 22967 net.cpp:157] Top shape: 1 3 (3)
I0129 12:58:50.684167 22967 net.cpp:157] Top shape: 1 3 (3)
I0129 12:58:50.684170 22967 net.cpp:165] Memory required for data: 25200052
I0129 12:58:50.684170 22967 layer_factory.hpp:77] Creating layer gt_boxes_input-data_2_split
I0129 12:58:50.684173 22967 net.cpp:100] Creating Layer gt_boxes_input-data_2_split
I0129 12:58:50.684175 22967 net.cpp:434] gt_boxes_input-data_2_split <- gt_boxes
I0129 12:58:50.684178 22967 net.cpp:408] gt_boxes_input-data_2_split -> gt_boxes_input-data_2_split_0
I0129 12:58:50.684182 22967 net.cpp:408] gt_boxes_input-data_2_split -> gt_boxes_input-data_2_split_1
I0129 12:58:50.684201 22967 net.cpp:150] Setting up gt_boxes_input-data_2_split
I0129 12:58:50.684203 22967 net.cpp:157] Top shape: 1 4 (4)
I0129 12:58:50.684206 22967 net.cpp:157] Top shape: 1 4 (4)
I0129 12:58:50.684206 22967 net.cpp:165] Memory required for data: 25200084
I0129 12:58:50.684208 22967 layer_factory.hpp:77] Creating layer conv1
I0129 12:58:50.684218 22967 net.cpp:100] Creating Layer conv1
I0129 12:58:50.684223 22967 net.cpp:434] conv1 <- data_input-data_0_split_0
I0129 12:58:50.684226 22967 net.cpp:408] conv1 -> conv1
I0129 12:58:50.827154 22967 net.cpp:150] Setting up conv1
I0129 12:58:50.827172 22967 net.cpp:157] Top shape: 1 96 347 497 (16556064)
I0129 12:58:50.827174 22967 net.cpp:165] Memory required for data: 91424340
I0129 12:58:50.827184 22967 layer_factory.hpp:77] Creating layer relu1
I0129 12:58:50.827191 22967 net.cpp:100] Creating Layer relu1
I0129 12:58:50.827193 22967 net.cpp:434] relu1 <- conv1
I0129 12:58:50.827198 22967 net.cpp:395] relu1 -> conv1 (in-place)
I0129 12:58:50.827332 22967 net.cpp:150] Setting up relu1
I0129 12:58:50.827339 22967 net.cpp:157] Top shape: 1 96 347 497 (16556064)
I0129 12:58:50.827342 22967 net.cpp:165] Memory required for data: 157648596
I0129 12:58:50.827343 22967 layer_factory.hpp:77] Creating layer norm1
I0129 12:58:50.827348 22967 net.cpp:100] Creating Layer norm1
I0129 12:58:50.827352 22967 net.cpp:434] norm1 <- conv1
I0129 12:58:50.827358 22967 net.cpp:408] norm1 -> norm1
I0129 12:58:50.827632 22967 net.cpp:150] Setting up norm1
I0129 12:58:50.827639 22967 net.cpp:157] Top shape: 1 96 347 497 (16556064)
I0129 12:58:50.827641 22967 net.cpp:165] Memory required for data: 223872852
I0129 12:58:50.827643 22967 layer_factory.hpp:77] Creating layer pool1
I0129 12:58:50.827648 22967 net.cpp:100] Creating Layer pool1
I0129 12:58:50.827649 22967 net.cpp:434] pool1 <- norm1
I0129 12:58:50.827652 22967 net.cpp:408] pool1 -> pool1
I0129 12:58:50.827673 22967 net.cpp:150] Setting up pool1
I0129 12:58:50.827679 22967 net.cpp:157] Top shape: 1 96 173 248 (4118784)
I0129 12:58:50.827682 22967 net.cpp:165] Memory required for data: 240347988
I0129 12:58:50.827685 22967 layer_factory.hpp:77] Creating layer conv2
I0129 12:58:50.827697 22967 net.cpp:100] Creating Layer conv2
I0129 12:58:50.827700 22967 net.cpp:434] conv2 <- pool1
I0129 12:58:50.827706 22967 net.cpp:408] conv2 -> conv2
I0129 12:58:50.829031 22967 net.cpp:150] Setting up conv2
I0129 12:58:50.829040 22967 net.cpp:157] Top shape: 1 256 86 123 (2707968)
I0129 12:58:50.829041 22967 net.cpp:165] Memory required for data: 251179860
I0129 12:58:50.829047 22967 layer_factory.hpp:77] Creating layer relu2
I0129 12:58:50.829051 22967 net.cpp:100] Creating Layer relu2
I0129 12:58:50.829052 22967 net.cpp:434] relu2 <- conv2
I0129 12:58:50.829056 22967 net.cpp:395] relu2 -> conv2 (in-place)
I0129 12:58:50.829301 22967 net.cpp:150] Setting up relu2
I0129 12:58:50.829309 22967 net.cpp:157] Top shape: 1 256 86 123 (2707968)
I0129 12:58:50.829311 22967 net.cpp:165] Memory required for data: 262011732
I0129 12:58:50.829313 22967 layer_factory.hpp:77] Creating layer norm2
I0129 12:58:50.829316 22967 net.cpp:100] Creating Layer norm2
I0129 12:58:50.829319 22967 net.cpp:434] norm2 <- conv2
I0129 12:58:50.829321 22967 net.cpp:408] norm2 -> norm2
I0129 12:58:50.829452 22967 net.cpp:150] Setting up norm2
I0129 12:58:50.829459 22967 net.cpp:157] Top shape: 1 256 86 123 (2707968)
I0129 12:58:50.829460 22967 net.cpp:165] Memory required for data: 272843604
I0129 12:58:50.829463 22967 layer_factory.hpp:77] Creating layer pool2
I0129 12:58:50.829465 22967 net.cpp:100] Creating Layer pool2
I0129 12:58:50.829468 22967 net.cpp:434] pool2 <- norm2
I0129 12:58:50.829470 22967 net.cpp:408] pool2 -> pool2
I0129 12:58:50.829495 22967 net.cpp:150] Setting up pool2
I0129 12:58:50.829501 22967 net.cpp:157] Top shape: 1 256 43 61 (671488)
I0129 12:58:50.829504 22967 net.cpp:165] Memory required for data: 275529556
I0129 12:58:50.829505 22967 layer_factory.hpp:77] Creating layer conv3
I0129 12:58:50.829510 22967 net.cpp:100] Creating Layer conv3
I0129 12:58:50.829514 22967 net.cpp:434] conv3 <- pool2
I0129 12:58:50.829515 22967 net.cpp:408] conv3 -> conv3
I0129 12:58:50.832521 22967 net.cpp:150] Setting up conv3
I0129 12:58:50.832540 22967 net.cpp:157] Top shape: 1 512 43 61 (1342976)
I0129 12:58:50.832542 22967 net.cpp:165] Memory required for data: 280901460
I0129 12:58:50.832552 22967 layer_factory.hpp:77] Creating layer relu3
I0129 12:58:50.832558 22967 net.cpp:100] Creating Layer relu3
I0129 12:58:50.832561 22967 net.cpp:434] relu3 <- conv3
I0129 12:58:50.832566 22967 net.cpp:395] relu3 -> conv3 (in-place)
I0129 12:58:50.832691 22967 net.cpp:150] Setting up relu3
I0129 12:58:50.832697 22967 net.cpp:157] Top shape: 1 512 43 61 (1342976)
I0129 12:58:50.832700 22967 net.cpp:165] Memory required for data: 286273364
I0129 12:58:50.832701 22967 layer_factory.hpp:77] Creating layer conv4
I0129 12:58:50.832706 22967 net.cpp:100] Creating Layer conv4
I0129 12:58:50.832708 22967 net.cpp:434] conv4 <- conv3
I0129 12:58:50.832711 22967 net.cpp:408] conv4 -> conv4
I0129 12:58:50.836305 22967 net.cpp:150] Setting up conv4
I0129 12:58:50.836325 22967 net.cpp:157] Top shape: 1 512 43 61 (1342976)
I0129 12:58:50.836328 22967 net.cpp:165] Memory required for data: 291645268
I0129 12:58:50.836333 22967 layer_factory.hpp:77] Creating layer relu4
I0129 12:58:50.836339 22967 net.cpp:100] Creating Layer relu4
I0129 12:58:50.836343 22967 net.cpp:434] relu4 <- conv4
I0129 12:58:50.836345 22967 net.cpp:395] relu4 -> conv4 (in-place)
I0129 12:58:50.836459 22967 net.cpp:150] Setting up relu4
I0129 12:58:50.836465 22967 net.cpp:157] Top shape: 1 512 43 61 (1342976)
I0129 12:58:50.836467 22967 net.cpp:165] Memory required for data: 297017172
I0129 12:58:50.836469 22967 layer_factory.hpp:77] Creating layer conv5
I0129 12:58:50.836480 22967 net.cpp:100] Creating Layer conv5
I0129 12:58:50.836483 22967 net.cpp:434] conv5 <- conv4
I0129 12:58:50.836486 22967 net.cpp:408] conv5 -> conv5
I0129 12:58:50.840822 22967 net.cpp:150] Setting up conv5
I0129 12:58:50.840839 22967 net.cpp:157] Top shape: 1 512 43 61 (1342976)
I0129 12:58:50.840842 22967 net.cpp:165] Memory required for data: 302389076
I0129 12:58:50.840852 22967 layer_factory.hpp:77] Creating layer relu5
I0129 12:58:50.840860 22967 net.cpp:100] Creating Layer relu5
I0129 12:58:50.840863 22967 net.cpp:434] relu5 <- conv5
I0129 12:58:50.840868 22967 net.cpp:395] relu5 -> conv5 (in-place)
I0129 12:58:50.841192 22967 net.cpp:150] Setting up relu5
I0129 12:58:50.841200 22967 net.cpp:157] Top shape: 1 512 43 61 (1342976)
I0129 12:58:50.841202 22967 net.cpp:165] Memory required for data: 307760980
I0129 12:58:50.841204 22967 layer_factory.hpp:77] Creating layer conv5_relu5_0_split
I0129 12:58:50.841208 22967 net.cpp:100] Creating Layer conv5_relu5_0_split
I0129 12:58:50.841210 22967 net.cpp:434] conv5_relu5_0_split <- conv5
I0129 12:58:50.841214 22967 net.cpp:408] conv5_relu5_0_split -> conv5_relu5_0_split_0
I0129 12:58:50.841219 22967 net.cpp:408] conv5_relu5_0_split -> conv5_relu5_0_split_1
I0129 12:58:50.841251 22967 net.cpp:150] Setting up conv5_relu5_0_split
I0129 12:58:50.841256 22967 net.cpp:157] Top shape: 1 512 43 61 (1342976)
I0129 12:58:50.841259 22967 net.cpp:157] Top shape: 1 512 43 61 (1342976)
I0129 12:58:50.841260 22967 net.cpp:165] Memory required for data: 318504788
I0129 12:58:50.841264 22967 layer_factory.hpp:77] Creating layer rpn_conv/3x3
I0129 12:58:50.841275 22967 net.cpp:100] Creating Layer rpn_conv/3x3
I0129 12:58:50.841279 22967 net.cpp:434] rpn_conv/3x3 <- conv5_relu5_0_split_0
I0129 12:58:50.841284 22967 net.cpp:408] rpn_conv/3x3 -> rpn/output
I0129 12:58:50.850272 22967 net.cpp:150] Setting up rpn_conv/3x3
I0129 12:58:50.850286 22967 net.cpp:157] Top shape: 1 256 43 61 (671488)
I0129 12:58:50.850287 22967 net.cpp:165] Memory required for data: 321190740
I0129 12:58:50.850292 22967 layer_factory.hpp:77] Creating layer rpn_relu/3x3
I0129 12:58:50.850296 22967 net.cpp:100] Creating Layer rpn_relu/3x3
I0129 12:58:50.850298 22967 net.cpp:434] rpn_relu/3x3 <- rpn/output
I0129 12:58:50.850302 22967 net.cpp:395] rpn_relu/3x3 -> rpn/output (in-place)
I0129 12:58:50.850571 22967 net.cpp:150] Setting up rpn_relu/3x3
I0129 12:58:50.850579 22967 net.cpp:157] Top shape: 1 256 43 61 (671488)
I0129 12:58:50.850580 22967 net.cpp:165] Memory required for data: 323876692
I0129 12:58:50.850582 22967 layer_factory.hpp:77] Creating layer rpn/output_rpn_relu/3x3_0_split
I0129 12:58:50.850586 22967 net.cpp:100] Creating Layer rpn/output_rpn_relu/3x3_0_split
I0129 12:58:50.850589 22967 net.cpp:434] rpn/output_rpn_relu/3x3_0_split <- rpn/output
I0129 12:58:50.850591 22967 net.cpp:408] rpn/output_rpn_relu/3x3_0_split -> rpn/output_rpn_relu/3x3_0_split_0
I0129 12:58:50.850595 22967 net.cpp:408] rpn/output_rpn_relu/3x3_0_split -> rpn/output_rpn_relu/3x3_0_split_1
I0129 12:58:50.850625 22967 net.cpp:150] Setting up rpn/output_rpn_relu/3x3_0_split
I0129 12:58:50.850631 22967 net.cpp:157] Top shape: 1 256 43 61 (671488)
I0129 12:58:50.850635 22967 net.cpp:157] Top shape: 1 256 43 61 (671488)
I0129 12:58:50.850636 22967 net.cpp:165] Memory required for data: 329248596
I0129 12:58:50.850637 22967 layer_factory.hpp:77] Creating layer rpn_cls_score
I0129 12:58:50.850643 22967 net.cpp:100] Creating Layer rpn_cls_score
I0129 12:58:50.850646 22967 net.cpp:434] rpn_cls_score <- rpn/output_rpn_relu/3x3_0_split_0
I0129 12:58:50.850649 22967 net.cpp:408] rpn_cls_score -> rpn_cls_score
I0129 12:58:50.851327 22967 net.cpp:150] Setting up rpn_cls_score
I0129 12:58:50.851335 22967 net.cpp:157] Top shape: 1 18 43 61 (47214)
I0129 12:58:50.851336 22967 net.cpp:165] Memory required for data: 329437452
I0129 12:58:50.851339 22967 layer_factory.hpp:77] Creating layer rpn_cls_score_rpn_cls_score_0_split
I0129 12:58:50.851343 22967 net.cpp:100] Creating Layer rpn_cls_score_rpn_cls_score_0_split
I0129 12:58:50.851346 22967 net.cpp:434] rpn_cls_score_rpn_cls_score_0_split <- rpn_cls_score
I0129 12:58:50.851348 22967 net.cpp:408] rpn_cls_score_rpn_cls_score_0_split -> rpn_cls_score_rpn_cls_score_0_split_0
I0129 12:58:50.851353 22967 net.cpp:408] rpn_cls_score_rpn_cls_score_0_split -> rpn_cls_score_rpn_cls_score_0_split_1
I0129 12:58:50.851375 22967 net.cpp:150] Setting up rpn_cls_score_rpn_cls_score_0_split
I0129 12:58:50.851382 22967 net.cpp:157] Top shape: 1 18 43 61 (47214)
I0129 12:58:50.851384 22967 net.cpp:157] Top shape: 1 18 43 61 (47214)
I0129 12:58:50.851387 22967 net.cpp:165] Memory required for data: 329815164
I0129 12:58:50.851390 22967 layer_factory.hpp:77] Creating layer rpn_bbox_pred
I0129 12:58:50.851399 22967 net.cpp:100] Creating Layer rpn_bbox_pred
I0129 12:58:50.851403 22967 net.cpp:434] rpn_bbox_pred <- rpn/output_rpn_relu/3x3_0_split_1
I0129 12:58:50.851409 22967 net.cpp:408] rpn_bbox_pred -> rpn_bbox_pred
I0129 12:58:50.851989 22967 net.cpp:150] Setting up rpn_bbox_pred
I0129 12:58:50.851996 22967 net.cpp:157] Top shape: 1 36 43 61 (94428)
I0129 12:58:50.851999 22967 net.cpp:165] Memory required for data: 330192876
I0129 12:58:50.852002 22967 layer_factory.hpp:77] Creating layer rpn_bbox_pred_rpn_bbox_pred_0_split
I0129 12:58:50.852005 22967 net.cpp:100] Creating Layer rpn_bbox_pred_rpn_bbox_pred_0_split
I0129 12:58:50.852008 22967 net.cpp:434] rpn_bbox_pred_rpn_bbox_pred_0_split <- rpn_bbox_pred
I0129 12:58:50.852012 22967 net.cpp:408] rpn_bbox_pred_rpn_bbox_pred_0_split -> rpn_bbox_pred_rpn_bbox_pred_0_split_0
I0129 12:58:50.852016 22967 net.cpp:408] rpn_bbox_pred_rpn_bbox_pred_0_split -> rpn_bbox_pred_rpn_bbox_pred_0_split_1
I0129 12:58:50.852042 22967 net.cpp:150] Setting up rpn_bbox_pred_rpn_bbox_pred_0_split
I0129 12:58:50.852047 22967 net.cpp:157] Top shape: 1 36 43 61 (94428)
I0129 12:58:50.852051 22967 net.cpp:157] Top shape: 1 36 43 61 (94428)
I0129 12:58:50.852053 22967 net.cpp:165] Memory required for data: 330948300
I0129 12:58:50.852056 22967 layer_factory.hpp:77] Creating layer rpn_cls_score_reshape
I0129 12:58:50.852067 22967 net.cpp:100] Creating Layer rpn_cls_score_reshape
I0129 12:58:50.852069 22967 net.cpp:434] rpn_cls_score_reshape <- rpn_cls_score_rpn_cls_score_0_split_0
I0129 12:58:50.852072 22967 net.cpp:408] rpn_cls_score_reshape -> rpn_cls_score_reshape
I0129 12:58:50.852093 22967 net.cpp:150] Setting up rpn_cls_score_reshape
I0129 12:58:50.852099 22967 net.cpp:157] Top shape: 1 2 387 61 (47214)
I0129 12:58:50.852102 22967 net.cpp:165] Memory required for data: 331137156
I0129 12:58:50.852105 22967 layer_factory.hpp:77] Creating layer rpn_cls_score_reshape_rpn_cls_score_reshape_0_split
I0129 12:58:50.852111 22967 net.cpp:100] Creating Layer rpn_cls_score_reshape_rpn_cls_score_reshape_0_split
I0129 12:58:50.852115 22967 net.cpp:434] rpn_cls_score_reshape_rpn_cls_score_reshape_0_split <- rpn_cls_score_reshape
I0129 12:58:50.852123 22967 net.cpp:408] rpn_cls_score_reshape_rpn_cls_score_reshape_0_split -> rpn_cls_score_reshape_rpn_cls_score_reshape_0_split_0
I0129 12:58:50.852129 22967 net.cpp:408] rpn_cls_score_reshape_rpn_cls_score_reshape_0_split -> rpn_cls_score_reshape_rpn_cls_score_reshape_0_split_1
I0129 12:58:50.852159 22967 net.cpp:150] Setting up rpn_cls_score_reshape_rpn_cls_score_reshape_0_split
I0129 12:58:50.852164 22967 net.cpp:157] Top shape: 1 2 387 61 (47214)
I0129 12:58:50.852165 22967 net.cpp:157] Top shape: 1 2 387 61 (47214)
I0129 12:58:50.852167 22967 net.cpp:165] Memory required for data: 331514868
I0129 12:58:50.852171 22967 layer_factory.hpp:77] Creating layer rpn-data
I0129 12:58:50.854452 22967 net.cpp:100] Creating Layer rpn-data
I0129 12:58:50.854461 22967 net.cpp:434] rpn-data <- rpn_cls_score_rpn_cls_score_0_split_1
I0129 12:58:50.854465 22967 net.cpp:434] rpn-data <- gt_boxes_input-data_2_split_0
I0129 12:58:50.854468 22967 net.cpp:434] rpn-data <- im_info_input-data_1_split_0
I0129 12:58:50.854470 22967 net.cpp:434] rpn-data <- data_input-data_0_split_1
I0129 12:58:50.854473 22967 net.cpp:408] rpn-data -> rpn_labels
I0129 12:58:50.854482 22967 net.cpp:408] rpn-data -> rpn_bbox_targets
I0129 12:58:50.854486 22967 net.cpp:408] rpn-data -> rpn_bbox_inside_weights
I0129 12:58:50.854491 22967 net.cpp:408] rpn-data -> rpn_bbox_outside_weights
I0129 12:58:50.856195 22967 net.cpp:150] Setting up rpn-data
I0129 12:58:50.856212 22967 net.cpp:157] Top shape: 1 1 387 61 (23607)
I0129 12:58:50.856215 22967 net.cpp:157] Top shape: 1 36 43 61 (94428)
I0129 12:58:50.856217 22967 net.cpp:157] Top shape: 1 36 43 61 (94428)
I0129 12:58:50.856220 22967 net.cpp:157] Top shape: 1 36 43 61 (94428)
I0129 12:58:50.856220 22967 net.cpp:165] Memory required for data: 332742432
I0129 12:58:50.856223 22967 layer_factory.hpp:77] Creating layer rpn_loss_cls
I0129 12:58:50.856230 22967 net.cpp:100] Creating Layer rpn_loss_cls
I0129 12:58:50.856232 22967 net.cpp:434] rpn_loss_cls <- rpn_cls_score_reshape_rpn_cls_score_reshape_0_split_0
I0129 12:58:50.856235 22967 net.cpp:434] rpn_loss_cls <- rpn_labels
…
I0129 12:58:50.857090 22967 net.cpp:157] Top shape: (1)
I0129 12:58:50.857091 22967 net.cpp:160]     with loss weight 1
I0129 12:58:50.857095 22967 net.cpp:165] Memory required for data: 332742440
I0129 12:58:50.857096 22967 layer_factory.hpp:77] Creating layer rpn_cls_prob
I0129 12:58:50.857100 22967 net.cpp:100] Creating Layer rpn_cls_prob
I0129 12:58:50.857102 22967 net.cpp:434] rpn_cls_prob <- rpn_cls_score_reshape_rpn_cls_score_reshape_0_split_1
I0129 12:58:50.857105 22967 net.cpp:408] rpn_cls_prob -> rpn_cls_prob
I0129 12:58:50.857266 22967 net.cpp:150] Setting up rpn_cls_prob
I0129 12:58:50.857272 22967 net.cpp:157] Top shape: 1 2 387 61 (47214)
I0129 12:58:50.857275 22967 net.cpp:165] Memory required for data: 332931296
I0129 12:58:50.857275 22967 layer_factory.hpp:77] Creating layer rpn_cls_prob_reshape
I0129 12:58:50.857286 22967 net.cpp:100] Creating Layer rpn_cls_prob_reshape
I0129 12:58:50.857288 22967 net.cpp:434] rpn_cls_prob_reshape <- rpn_cls_prob
I0129 12:58:50.857291 22967 net.cpp:408] rpn_cls_prob_reshape -> rpn_cls_prob_reshape
I0129 12:58:50.857309 22967 net.cpp:150] Setting up rpn_cls_prob_reshape
I0129 12:58:50.857316 22967 net.cpp:157] Top shape: 1 18 43 61 (47214)
I0129 12:58:50.857317 22967 net.cpp:165] Memory required for data: 333120152
I0129 12:58:50.857321 22967 layer_factory.hpp:77] Creating layer proposal
I0129 12:58:50.857853 22967 net.cpp:100] Creating Layer proposal
I0129 12:58:50.857861 22967 net.cpp:434] proposal <- rpn_cls_prob_reshape
I0129 12:58:50.857864 22967 net.cpp:434] proposal <- rpn_bbox_pred_rpn_bbox_pred_0_split_1
I0129 12:58:50.857867 22967 net.cpp:434] proposal <- im_info_input-data_1_split_1
I0129 12:58:50.857872 22967 net.cpp:408] proposal -> rpn_rois
I0129 12:58:50.858430 22967 net.cpp:150] Setting up proposal
I0129 12:58:50.858438 22967 net.cpp:157] Top shape: 1 5 (5)
I0129 12:58:50.858441 22967 net.cpp:165] Memory required for data: 333120172
I0129 12:58:50.858444 22967 layer_factory.hpp:77] Creating layer roi-data
I0129 12:58:50.866672 22967 net.cpp:100] Creating Layer roi-data
I0129 12:58:50.866679 22967 net.cpp:434] roi-data <- rpn_rois
I0129 12:58:50.866683 22967 net.cpp:434] roi-data <- gt_boxes_input-data_2_split_1
I0129 12:58:50.866686 22967 net.cpp:408] roi-data -> rois
I0129 12:58:50.866691 22967 net.cpp:408] roi-data -> labels
I0129 12:58:50.866695 22967 net.cpp:408] roi-data -> bbox_targets
I0129 12:58:50.866698 22967 net.cpp:408] roi-data -> bbox_inside_weights
I0129 12:58:50.866703 22967 net.cpp:408] roi-data -> bbox_outside_weights
I0129 12:58:50.866955 22967 net.cpp:150] Setting up roi-data
I0129 12:58:50.866961 22967 net.cpp:157] Top shape: 1 5 (5)
I0129 12:58:50.866964 22967 net.cpp:157] Top shape: 1 1 (1)
I0129 12:58:50.866966 22967 net.cpp:157] Top shape: 1 8 (8)
I0129 12:58:50.866967 22967 net.cpp:157] Top shape: 1 8 (8)
I0129 12:58:50.866969 22967 net.cpp:157] Top shape: 1 8 (8)
I0129 12:58:50.866971 22967 net.cpp:165] Memory required for data: 333120292
I0129 12:58:50.866972 22967 layer_factory.hpp:77] Creating layer roi_pool5
I0129 12:58:50.866977 22967 net.cpp:100] Creating Layer roi_pool5
I0129 12:58:50.866979 22967 net.cpp:434] roi_pool5 <- conv5_relu5_0_split_1
I0129 12:58:50.866982 22967 net.cpp:434] roi_pool5 <- rois
I0129 12:58:50.866984 22967 net.cpp:408] roi_pool5 -> pool5
I0129 12:58:50.866989 22967 roi_pooling_layer.cpp:30] Spatial scale: 0.0625
I0129 12:58:50.867020 22967 net.cpp:150] Setting up roi_pool5
I0129 12:58:50.867025 22967 net.cpp:157] Top shape: 1 512 6 6 (18432)
I0129 12:58:50.867027 22967 net.cpp:165] Memory required for data: 333194020
I0129 12:58:50.867028 22967 layer_factory.hpp:77] Creating layer fc6
I0129 12:58:50.867033 22967 net.cpp:100] Creating Layer fc6
I0129 12:58:50.867033 22967 net.cpp:434] fc6 <- pool5
I0129 12:58:50.867036 22967 net.cpp:408] fc6 -> fc6
I0129 12:58:50.981432 22967 net.cpp:150] Setting up fc6
I0129 12:58:50.981465 22967 net.cpp:157] Top shape: 1 4096 (4096)
I0129 12:58:50.981467 22967 net.cpp:165] Memory required for data: 333210404
I0129 12:58:50.981479 22967 layer_factory.hpp:77] Creating layer relu6
I0129 12:58:50.981488 22967 net.cpp:100] Creating Layer relu6
I0129 12:58:50.981490 22967 net.cpp:434] relu6 <- fc6
I0129 12:58:50.981495 22967 net.cpp:395] relu6 -> fc6 (in-place)
I0129 12:58:50.981681 22967 net.cpp:150] Setting up relu6
I0129 12:58:50.981688 22967 net.cpp:157] Top shape: 1 4096 (4096)
I0129 12:58:50.981689 22967 net.cpp:165] Memory required for data: 333226788
I0129 12:58:50.981691 22967 layer_factory.hpp:77] Creating layer drop6
I0129 12:58:50.981696 22967 net.cpp:100] Creating Layer drop6
I0129 12:58:50.981699 22967 net.cpp:434] drop6 <- fc6
I0129 12:58:50.981704 22967 net.cpp:395] drop6 -> fc6 (in-place)
I0129 12:58:50.981729 22967 net.cpp:150] Setting up drop6
I0129 12:58:50.981732 22967 net.cpp:157] Top shape: 1 4096 (4096)
I0129 12:58:50.981734 22967 net.cpp:165] Memory required for data: 333243172
I0129 12:58:50.981735 22967 layer_factory.hpp:77] Creating layer fc7
I0129 12:58:50.981739 22967 net.cpp:100] Creating Layer fc7
I0129 12:58:50.981741 22967 net.cpp:434] fc7 <- fc6
I0129 12:58:50.981745 22967 net.cpp:408] fc7 -> fc7
I0129 12:58:50.987612 22967 net.cpp:150] Setting up fc7
I0129 12:58:50.987648 22967 net.cpp:157] Top shape: 1 1024 (1024)
I0129 12:58:50.987650 22967 net.cpp:165] Memory required for data: 333247268
I0129 12:58:50.987660 22967 layer_factory.hpp:77] Creating layer relu7
I0129 12:58:50.987669 22967 net.cpp:100] Creating Layer relu7
I0129 12:58:50.987673 22967 net.cpp:434] relu7 <- fc7
I0129 12:58:50.987678 22967 net.cpp:395] relu7 -> fc7 (in-place)
I0129 12:58:50.988098 22967 net.cpp:150] Setting up relu7
I0129 12:58:50.988106 22967 net.cpp:157] Top shape: 1 1024 (1024)
I0129 12:58:50.988122 22967 net.cpp:165] Memory required for data: 333251364
I0129 12:58:50.988124 22967 layer_factory.hpp:77] Creating layer drop7
I0129 12:58:50.988128 22967 net.cpp:100] Creating Layer drop7
I0129 12:58:50.988131 22967 net.cpp:434] drop7 <- fc7
I0129 12:58:50.988133 22967 net.cpp:395] drop7 -> fc7 (in-place)
I0129 12:58:50.988159 22967 net.cpp:150] Setting up drop7
I0129 12:58:50.988178 22967 net.cpp:157] Top shape: 1 1024 (1024)
I0129 12:58:50.988179 22967 net.cpp:165] Memory required for data: 333255460
I0129 12:58:50.988180 22967 layer_factory.hpp:77] Creating layer fc7_drop7_0_split
I0129 12:58:50.988184 22967 net.cpp:100] Creating Layer fc7_drop7_0_split
I0129 12:58:50.988201 22967 net.cpp:434] fc7_drop7_0_split <- fc7
I0129 12:58:50.988204 22967 net.cpp:408] fc7_drop7_0_split -> fc7_drop7_0_split_0
I0129 12:58:50.988207 22967 net.cpp:408] fc7_drop7_0_split -> fc7_drop7_0_split_1
I0129 12:58:50.988232 22967 net.cpp:150] Setting up fc7_drop7_0_split
I0129 12:58:50.988237 22967 net.cpp:157] Top shape: 1 1024 (1024)
I0129 12:58:50.988240 22967 net.cpp:157] Top shape: 1 1024 (1024)
I0129 12:58:50.988242 22967 net.cpp:165] Memory required for data: 333263652
I0129 12:58:50.988245 22967 layer_factory.hpp:77] Creating layer cls_score
I0129 12:58:50.988250 22967 net.cpp:100] Creating Layer cls_score
I0129 12:58:50.988252 22967 net.cpp:434] cls_score <- fc7_drop7_0_split_0
I0129 12:58:50.988255 22967 net.cpp:408] cls_score -> cls_score
I0129 12:58:50.988339 22967 net.cpp:150] Setting up cls_score
I0129 12:58:50.988343 22967 net.cpp:157] Top shape: 1 2 (2)
I0129 12:58:50.988345 22967 net.cpp:165] Memory required for data: 333263660
I0129 12:58:50.988348 22967 layer_factory.hpp:77] Creating layer bbox_pred
I0129 12:58:50.988353 22967 net.cpp:100] Creating Layer bbox_pred
I0129 12:58:50.988355 22967 net.cpp:434] bbox_pred <- fc7_drop7_0_split_1
I0129 12:58:50.988358 22967 net.cpp:408] bbox_pred -> bbox_pred
I0129 12:58:50.988489 22967 net.cpp:150] Setting up bbox_pred
I0129 12:58:50.988494 22967 net.cpp:157] Top shape: 1 8 (8)
I0129 12:58:50.988495 22967 net.cpp:165] Memory required for data: 333263692
I0129 12:58:50.988498 22967 layer_factory.hpp:77] Creating layer loss_cls
I0129 12:58:50.988502 22967 net.cpp:100] Creating Layer loss_cls
I0129 12:58:50.988503 22967 net.cpp:434] loss_cls <- cls_score
I0129 12:58:50.988507 22967 net.cpp:434] loss_cls <- labels
I0129 12:58:50.988509 22967 net.cpp:408] loss_cls -> loss_cls
…
I0129 14:23:11.274392 31824 upgrade_proto.cpp:70] Successfully upgraded file specified using deprecated input fields.
W0129 14:23:11.274404 31824 upgrade_proto.cpp:72] Note that future Caffe releases will only support input layers and not input fields.
I0129 14:23:11.285521 31824 net.cpp:58] Initializing net from parameters: 
name: "VGG_CNN_M_1024"
state {
  phase: TEST
  level: 0
}
layer {
  name: "input"
  type: "Input"
  top: "data"
  top: "im_info"
  input_param {
    shape {
      dim: 1
      dim: 3
      dim: 224
      dim: 224
    }
    shape {
      dim: 1
      dim: 3
    }
  }
}
layer {
  name: "conv1"
  type: "Convolution"
  bottom: "data"
  top: "conv1"
  param {
    lr_mult: 0
    decay_mult: 0
  }
  param {
    lr_mult: 0
    decay_mult: 0
  }
  convolution_param {
    num_output: 96
    kernel_size: 7
    stride: 2
  }
}
layer {
  name: "relu1"
  type: "ReLU"
  bottom: "conv1"
  top: "conv1"
}
layer {
  name: "norm1"
  type: "LRN"
  bottom: "conv1"
  top: "norm1"
  lrn_param {
    local_size: 5
    alpha: 0.0005
    beta: 0.75
    k: 2
  }
}
layer {
  name: "pool1"
  type: "Pooling"
  bottom: "norm1"
  top: "pool1"
  pooling_param {
    pool: MAX
    kernel_size: 3
    stride: 2
  }
}
layer {
  name: "conv2"
  type: "Convolution"
  bottom: "pool1"
  top: "conv2"
  param {
    lr_mult: 1
    decay_mult: 1
  }
  param {
    lr_mult: 2
    decay_mult: 0
  }
  convolution_param {
    num_output: 256
    pad: 1
    kernel_size: 5
    stride: 2
  }
}
layer {
  name: "relu2"
  type: "ReLU"
  bottom: "conv2"
  top: "conv2"
}
layer {
  name: "norm2"
  type: "LRN"
  bottom: "conv2"
  top: "norm2"
  lrn_param {
    local_size: 5
    alpha: 0.0005
    beta: 0.75
    k: 2
  }
}
layer {
  name: "pool2"
  type: "Pooling"
  bottom: "norm2"
  top: "pool2"
  pooling_param {
    pool: MAX
    kernel_size: 3
    stride: 2
  }
}
layer {
  name: "conv3"
  type: "Convolution"
  bottom: "pool2"
  top: "conv3"
  param {
    lr_mult: 1
    decay_mult: 1
  }
  param {
    lr_mult: 2
    decay_mult: 0
  }
  convolution_param {
    num_output: 512
    pad: 1
    kernel_size: 3
  }
}
layer {
  name: "relu3"
  type: "ReLU"
  bottom: "conv3"
  top: "conv3"
}
layer {
  name: "conv4"
  type: "Convolution"
  bottom: "conv3"
  top: "conv4"
  param {
    lr_mult: 1
    decay_mult: 1
  }
  param {
    lr_mult: 2
    decay_mult: 0
  }
  convolution_param {
    num_output: 512
    pad: 1
    kernel_size: 3
  }
}
layer {
  name: "relu4"
  type: "ReLU"
  bottom: "conv4"
  top: "conv4"
}
layer {
  name: "conv5"
  type: "Convolution"
  bottom: "conv4"
  top: "conv5"
  param {
    lr_mult: 1
    decay_mult: 1
  }
  param {
    lr_mult: 2
    decay_mult: 0
  }
  convolution_param {
    num_output: 512
    pad: 1
    kernel_size: 3
  }
}
layer {
  name: "relu5"
  type: "ReLU"
  bottom: "conv5"
  top: "conv5"
}
layer {
  name: "rpn_conv/3x3"
  type: "Convolution"
  bottom: "conv5"
  top: "rpn/output"
  param {
    lr_mult: 1
    decay_mult: 1
  }
  param {
    lr_mult: 2
    decay_mult: 0
  }
  convolution_param {
    num_output: 256
    pad: 1
    kernel_size: 3
    stride: 1
    weight_filler {
      type: "gaussian"
      std: 0.01
    }
    bias_filler {
      type: "constant"
      value: 0
    }
  }
}
layer {
  name: "rpn_relu/3x3"
  type: "ReLU"
  bottom: "rpn/output"
  top: "rpn/output"
}
layer {
  name: "rpn_cls_score"
  type: "Convolution"
  bottom: "rpn/output"
  top: "rpn_cls_score"
  param {
    lr_mult: 1
    decay_mult: 1
  }
  param {
    lr_mult: 2
    decay_mult: 0
  }
  convolution_param {
    num_output: 18
    pad: 0
    kernel_size: 1
    stride: 1
    weight_filler {
      type: "gaussian"
      std: 0.01
    }
    bias_filler {
      type: "constant"
      value: 0
    }
  }
}
layer {
  name: "rpn_bbox_pred"
  type: "Convolution"
  bottom: "rpn/output"
  top: "rpn_bbox_pred"
  param {
    lr_mult: 1
    decay_mult: 1
  }
  param {
    lr_mult: 2
    decay_mult: 0
  }
  convolution_param {
    num_output: 36
    pad: 0
    kernel_size: 1
    stride: 1
    weight_filler {
      type: "gaussian"
      std: 0.01
    }
    bias_filler {
      type: "constant"
      value: 0
    }
  }
}
layer {
  name: "rpn_cls_score_reshape"
  type: "Reshape"
  bottom: "rpn_cls_score"
  top: "rpn_cls_score_reshape"
  reshape_param {
    shape {
      dim: 0
      dim: 2
      dim: -1
      dim: 0
    }
  }
}
layer {
  name: "rpn_cls_prob"
  type: "Softmax"
  bottom: "rpn_cls_score_reshape"
  top: "rpn_cls_prob"
}
layer {
  name: "rpn_cls_prob_reshape"
  type: "Reshape"
  bottom: "rpn_cls_prob"
  top: "rpn_cls_prob_reshape"
  reshape_param {
    shape {
      dim: 0
      dim: 18
      dim: -1
      dim: 0
    }
  }
}
layer {
  name: "proposal"
  type: "Python"
  bottom: "rpn_cls_prob_reshape"
  bottom: "rpn_bbox_pred"
  bottom: "im_info"
  top: "rois"
  python_param {
    module: "rpn.proposal_layer"
    layer: "ProposalLayer"
    param_str: "\'feat_stride\': 16"
  }
}
layer {
  name: "roi_pool5"
  type: "ROIPooling"
  bottom: "conv5"
  bottom: "rois"
  top: "pool5"
  roi_pooling_param {
    pooled_h: 6
    pooled_w: 6
    spatial_scale: 0.0625
  }
}
layer {
  name: "fc6"
  type: "InnerProduct"
  bottom: "pool5"
  top: "fc6"
  param {
    lr_mult: 1
    decay_mult: 1
  }
  param {
    lr_mult: 2
    decay_mult: 0
  }
  inner_product_param {
    num_output: 4096
  }
}
layer {
  name: "relu6"
  type: "ReLU"
  bottom: "fc6"
  top: "fc6"
}
layer {
  name: "drop6"
  type: "Dropout"
  bottom: "fc6"
  top: "fc6"
  dropout_param {
    dropout_ratio: 0.5
  }
}
layer {
  name: "fc7"
  type: "InnerProduct"
  bottom: "fc6"
  top: "fc7"
  param {
    lr_mult: 1
    decay_mult: 1
  }
  param {
    lr_mult: 2
    decay_mult: 0
  }
  inner_product_param {
    num_output: 1024
  }
}
layer {
  name: "relu7"
  type: "ReLU"
  bottom: "fc7"
  top: "fc7"
}
layer {
  name: "drop7"
  type: "Dropout"
  bottom: "fc7"
  top: "fc7"
  dropout_param {
    dropout_ratio: 0.5
  }
}
layer {
  name: "cls_score"
  type: "InnerProduct"
  bottom: "fc7"
  top: "cls_score"
  param {
    lr_mult: 1
    decay_mult: 1
  }
  param {
    lr_mult: 2
    decay_mult: 0
  }
  inner_product_param {
    num_output: 2
    weight_filler {
      type: "gaussian"
      std: 0.01
    }
    bias_filler {
      type: "constant"
      value: 0
    }
  }
}
layer {
  name: "bbox_pred"
  type: "InnerProduct"
  bottom: "fc7"
  top: "bbox_pred"
  param {
    lr_mult: 1
    decay_mult: 1
  }
  param {
    lr_mult: 2
    decay_mult: 0
  }
  inner_product_param {
    num_output: 8
    weight_filler {
      type: "gaussian"
      std: 0.001
    }
    bias_filler {
      type: "constant"
      value: 0
    }
  }
}
layer {
  name: "cls_prob"
  type: "Softmax"
  bottom: "cls_score"
  top: "cls_prob"
}
I0129 14:23:11.286401 31824 layer_factory.hpp:77] Creating layer input
I0129 14:23:11.286465 31824 net.cpp:100] Creating Layer input
I0129 14:23:11.286501 31824 net.cpp:408] input -> data
I0129 14:23:11.286553 31824 net.cpp:408] input -> im_info
I0129 14:23:11.607566 31824 net.cpp:150] Setting up input
I0129 14:23:11.607620 31824 net.cpp:157] Top shape: 1 3 224 224 (150528)
I0129 14:23:11.607635 31824 net.cpp:157] Top shape: 1 3 (3)
I0129 14:23:11.607642 31824 net.cpp:165] Memory required for data: 602124
I0129 14:23:11.607659 31824 layer_factory.hpp:77] Creating layer conv1
I0129 14:23:11.607689 31824 net.cpp:100] Creating Layer conv1
I0129 14:23:11.607700 31824 net.cpp:434] conv1 <- data
I0129 14:23:11.607717 31824 net.cpp:408] conv1 -> conv1
I0129 14:23:12.283890 31824 net.cpp:150] Setting up conv1
I0129 14:23:12.283928 31824 net.cpp:157] Top shape: 1 96 109 109 (1140576)
I0129 14:23:12.283936 31824 net.cpp:165] Memory required for data: 5164428
I0129 14:23:12.283960 31824 layer_factory.hpp:77] Creating layer relu1
I0129 14:23:12.283977 31824 net.cpp:100] Creating Layer relu1
I0129 14:23:12.283984 31824 net.cpp:434] relu1 <- conv1
I0129 14:23:12.283993 31824 net.cpp:395] relu1 -> conv1 (in-place)
I0129 14:23:12.284389 31824 net.cpp:150] Setting up relu1
I0129 14:23:12.284410 31824 net.cpp:157] Top shape: 1 96 109 109 (1140576)
I0129 14:23:12.284416 31824 net.cpp:165] Memory required for data: 9726732
I0129 14:23:12.284422 31824 layer_factory.hpp:77] Creating layer norm1
I0129 14:23:12.284435 31824 net.cpp:100] Creating Layer norm1
I0129 14:23:12.284441 31824 net.cpp:434] norm1 <- conv1
I0129 14:23:12.284449 31824 net.cpp:408] norm1 -> norm1
I0129 14:23:12.285238 31824 net.cpp:150] Setting up norm1
I0129 14:23:12.285259 31824 net.cpp:157] Top shape: 1 96 109 109 (1140576)
I0129 14:23:12.285265 31824 net.cpp:165] Memory required for data: 14289036
I0129 14:23:12.285271 31824 layer_factory.hpp:77] Creating layer pool1
I0129 14:23:12.285286 31824 net.cpp:100] Creating Layer pool1
I0129 14:23:12.285292 31824 net.cpp:434] pool1 <- norm1
I0129 14:23:12.285301 31824 net.cpp:408] pool1 -> pool1
I0129 14:23:12.285377 31824 net.cpp:150] Setting up pool1
I0129 14:23:12.285413 31824 net.cpp:157] Top shape: 1 96 54 54 (279936)
I0129 14:23:12.285420 31824 net.cpp:165] Memory required for data: 15408780
I0129 14:23:12.285426 31824 layer_factory.hpp:77] Creating layer conv2
I0129 14:23:12.285440 31824 net.cpp:100] Creating Layer conv2
I0129 14:23:12.285446 31824 net.cpp:434] conv2 <- pool1
I0129 14:23:12.285456 31824 net.cpp:408] conv2 -> conv2
I0129 14:23:12.289682 31824 net.cpp:150] Setting up conv2
I0129 14:23:12.289702 31824 net.cpp:157] Top shape: 1 256 26 26 (173056)
I0129 14:23:12.289708 31824 net.cpp:165] Memory required for data: 16101004
I0129 14:23:12.289721 31824 layer_factory.hpp:77] Creating layer relu2
I0129 14:23:12.289731 31824 net.cpp:100] Creating Layer relu2
I0129 14:23:12.289736 31824 net.cpp:434] relu2 <- conv2
I0129 14:23:12.289741 31824 net.cpp:395] relu2 -> conv2 (in-place)
I0129 14:23:12.290302 31824 net.cpp:150] Setting up relu2
I0129 14:23:12.290318 31824 net.cpp:157] Top shape: 1 256 26 26 (173056)
I0129 14:23:12.290323 31824 net.cpp:165] Memory required for data: 16793228
I0129 14:23:12.290328 31824 layer_factory.hpp:77] Creating layer norm2
I0129 14:23:12.290336 31824 net.cpp:100] Creating Layer norm2
I0129 14:23:12.290340 31824 net.cpp:434] norm2 <- conv2
I0129 14:23:12.290347 31824 net.cpp:408] norm2 -> norm2
I0129 14:23:12.290622 31824 net.cpp:150] Setting up norm2
I0129 14:23:12.290634 31824 net.cpp:157] Top shape: 1 256 26 26 (173056)
I0129 14:23:12.290638 31824 net.cpp:165] Memory required for data: 17485452
I0129 14:23:12.290642 31824 layer_factory.hpp:77] Creating layer pool2
I0129 14:23:12.290652 31824 net.cpp:100] Creating Layer pool2
I0129 14:23:12.290657 31824 net.cpp:434] pool2 <- norm2
I0129 14:23:12.290663 31824 net.cpp:408] pool2 -> pool2
I0129 14:23:12.290707 31824 net.cpp:150] Setting up pool2
I0129 14:23:12.290716 31824 net.cpp:157] Top shape: 1 256 13 13 (43264)
I0129 14:23:12.290720 31824 net.cpp:165] Memory required for data: 17658508
I0129 14:23:12.290724 31824 layer_factory.hpp:77] Creating layer conv3
I0129 14:23:12.290732 31824 net.cpp:100] Creating Layer conv3
I0129 14:23:12.290736 31824 net.cpp:434] conv3 <- pool2
I0129 14:23:12.290743 31824 net.cpp:408] conv3 -> conv3
I0129 14:23:12.294894 31824 net.cpp:150] Setting up conv3
I0129 14:23:12.294914 31824 net.cpp:157] Top shape: 1 512 13 13 (86528)
I0129 14:23:12.294917 31824 net.cpp:165] Memory required for data: 18004620
I0129 14:23:12.294931 31824 layer_factory.hpp:77] Creating layer relu3
I0129 14:23:12.294940 31824 net.cpp:100] Creating Layer relu3
I0129 14:23:12.294945 31824 net.cpp:434] relu3 <- conv3
I0129 14:23:12.294952 31824 net.cpp:395] relu3 -> conv3 (in-place)
I0129 14:23:12.295166 31824 net.cpp:150] Setting up relu3
I0129 14:23:12.295176 31824 net.cpp:157] Top shape: 1 512 13 13 (86528)
I0129 14:23:12.295179 31824 net.cpp:165] Memory required for data: 18350732
I0129 14:23:12.295183 31824 layer_factory.hpp:77] Creating layer conv4
I0129 14:23:12.295192 31824 net.cpp:100] Creating Layer conv4
I0129 14:23:12.295195 31824 net.cpp:434] conv4 <- conv3
I0129 14:23:12.295200 31824 net.cpp:408] conv4 -> conv4
I0129 14:23:12.301096 31824 net.cpp:150] Setting up conv4
I0129 14:23:12.301121 31824 net.cpp:157] Top shape: 1 512 13 13 (86528)
I0129 14:23:12.301126 31824 net.cpp:165] Memory required for data: 18696844
I0129 14:23:12.301134 31824 layer_factory.hpp:77] Creating layer relu4
I0129 14:23:12.301143 31824 net.cpp:100] Creating Layer relu4
I0129 14:23:12.301147 31824 net.cpp:434] relu4 <- conv4
I0129 14:23:12.301152 31824 net.cpp:395] relu4 -> conv4 (in-place)
I0129 14:23:12.301355 31824 net.cpp:150] Setting up relu4
I0129 14:23:12.301365 31824 net.cpp:157] Top shape: 1 512 13 13 (86528)
I0129 14:23:12.301368 31824 net.cpp:165] Memory required for data: 19042956
I0129 14:23:12.301373 31824 layer_factory.hpp:77] Creating layer conv5
I0129 14:23:12.301398 31824 net.cpp:100] Creating Layer conv5
I0129 14:23:12.301401 31824 net.cpp:434] conv5 <- conv4
I0129 14:23:12.301407 31824 net.cpp:408] conv5 -> conv5
I0129 14:23:12.306860 31824 net.cpp:150] Setting up conv5
I0129 14:23:12.306881 31824 net.cpp:157] Top shape: 1 512 13 13 (86528)
I0129 14:23:12.306885 31824 net.cpp:165] Memory required for data: 19389068
I0129 14:23:12.306895 31824 layer_factory.hpp:77] Creating layer relu5
I0129 14:23:12.306903 31824 net.cpp:100] Creating Layer relu5
I0129 14:23:12.306906 31824 net.cpp:434] relu5 <- conv5
I0129 14:23:12.306912 31824 net.cpp:395] relu5 -> conv5 (in-place)
I0129 14:23:12.307283 31824 net.cpp:150] Setting up relu5
I0129 14:23:12.307293 31824 net.cpp:157] Top shape: 1 512 13 13 (86528)
I0129 14:23:12.307296 31824 net.cpp:165] Memory required for data: 19735180
I0129 14:23:12.307298 31824 layer_factory.hpp:77] Creating layer conv5_relu5_0_split
I0129 14:23:12.307303 31824 net.cpp:100] Creating Layer conv5_relu5_0_split
I0129 14:23:12.307307 31824 net.cpp:434] conv5_relu5_0_split <- conv5
I0129 14:23:12.307312 31824 net.cpp:408] conv5_relu5_0_split -> conv5_relu5_0_split_0
I0129 14:23:12.307317 31824 net.cpp:408] conv5_relu5_0_split -> conv5_relu5_0_split_1
I0129 14:23:12.307353 31824 net.cpp:150] Setting up conv5_relu5_0_split
I0129 14:23:12.307360 31824 net.cpp:157] Top shape: 1 512 13 13 (86528)
I0129 14:23:12.307363 31824 net.cpp:157] Top shape: 1 512 13 13 (86528)
I0129 14:23:12.307365 31824 net.cpp:165] Memory required for data: 20427404
I0129 14:23:12.307368 31824 layer_factory.hpp:77] Creating layer rpn_conv/3x3
I0129 14:23:12.307379 31824 net.cpp:100] Creating Layer rpn_conv/3x3
I0129 14:23:12.307381 31824 net.cpp:434] rpn_conv/3x3 <- conv5_relu5_0_split_0
I0129 14:23:12.307386 31824 net.cpp:408] rpn_conv/3x3 -> rpn/output
I0129 14:23:12.335650 31824 net.cpp:150] Setting up rpn_conv/3x3
I0129 14:23:12.335669 31824 net.cpp:157] Top shape: 1 256 13 13 (43264)
I0129 14:23:12.335672 31824 net.cpp:165] Memory required for data: 20600460
I0129 14:23:12.335680 31824 layer_factory.hpp:77] Creating layer rpn_relu/3x3
I0129 14:23:12.335688 31824 net.cpp:100] Creating Layer rpn_relu/3x3
I0129 14:23:12.335691 31824 net.cpp:434] rpn_relu/3x3 <- rpn/output
I0129 14:23:12.335695 31824 net.cpp:395] rpn_relu/3x3 -> rpn/output (in-place)
I0129 14:23:12.336063 31824 net.cpp:150] Setting up rpn_relu/3x3
I0129 14:23:12.336074 31824 net.cpp:157] Top shape: 1 256 13 13 (43264)
I0129 14:23:12.336077 31824 net.cpp:165] Memory required for data: 20773516
I0129 14:23:12.336079 31824 layer_factory.hpp:77] Creating layer rpn/output_rpn_relu/3x3_0_split
I0129 14:23:12.336086 31824 net.cpp:100] Creating Layer rpn/output_rpn_relu/3x3_0_split
I0129 14:23:12.336087 31824 net.cpp:434] rpn/output_rpn_relu/3x3_0_split <- rpn/output
I0129 14:23:12.336091 31824 net.cpp:408] rpn/output_rpn_relu/3x3_0_split -> rpn/output_rpn_relu/3x3_0_split_0
I0129 14:23:12.336098 31824 net.cpp:408] rpn/output_rpn_relu/3x3_0_split -> rpn/output_rpn_relu/3x3_0_split_1
I0129 14:23:12.336135 31824 net.cpp:150] Setting up rpn/output_rpn_relu/3x3_0_split
I0129 14:23:12.336140 31824 net.cpp:157] Top shape: 1 256 13 13 (43264)
I0129 14:23:12.336143 31824 net.cpp:157] Top shape: 1 256 13 13 (43264)
I0129 14:23:12.336145 31824 net.cpp:165] Memory required for data: 21119628
I0129 14:23:12.336148 31824 layer_factory.hpp:77] Creating layer rpn_cls_score
I0129 14:23:12.336158 31824 net.cpp:100] Creating Layer rpn_cls_score
I0129 14:23:12.336159 31824 net.cpp:434] rpn_cls_score <- rpn/output_rpn_relu/3x3_0_split_0
I0129 14:23:12.336164 31824 net.cpp:408] rpn_cls_score -> rpn_cls_score
I0129 14:23:12.337272 31824 net.cpp:150] Setting up rpn_cls_score
I0129 14:23:12.337282 31824 net.cpp:157] Top shape: 1 18 13 13 (3042)
I0129 14:23:12.337285 31824 net.cpp:165] Memory required for data: 21131796
I0129 14:23:12.337291 31824 layer_factory.hpp:77] Creating layer rpn_bbox_pred
I0129 14:23:12.337299 31824 net.cpp:100] Creating Layer rpn_bbox_pred
I0129 14:23:12.337302 31824 net.cpp:434] rpn_bbox_pred <- rpn/output_rpn_relu/3x3_0_split_1
I0129 14:23:12.337307 31824 net.cpp:408] rpn_bbox_pred -> rpn_bbox_pred
I0129 14:23:12.338023 31824 net.cpp:150] Setting up rpn_bbox_pred
I0129 14:23:12.338032 31824 net.cpp:157] Top shape: 1 36 13 13 (6084)
I0129 14:23:12.338033 31824 net.cpp:165] Memory required for data: 21156132
I0129 14:23:12.338037 31824 layer_factory.hpp:77] Creating layer rpn_cls_score_reshape
I0129 14:23:12.338042 31824 net.cpp:100] Creating Layer rpn_cls_score_reshape
I0129 14:23:12.338045 31824 net.cpp:434] rpn_cls_score_reshape <- rpn_cls_score
I0129 14:23:12.338049 31824 net.cpp:408] rpn_cls_score_reshape -> rpn_cls_score_reshape
I0129 14:23:12.338069 31824 net.cpp:150] Setting up rpn_cls_score_reshape
I0129 14:23:12.338075 31824 net.cpp:157] Top shape: 1 2 117 13 (3042)
I0129 14:23:12.338078 31824 net.cpp:165] Memory required for data: 21168300
I0129 14:23:12.338079 31824 layer_factory.hpp:77] Creating layer rpn_cls_prob
I0129 14:23:12.338083 31824 net.cpp:100] Creating Layer rpn_cls_prob
I0129 14:23:12.338085 31824 net.cpp:434] rpn_cls_prob <- rpn_cls_score_reshape
I0129 14:23:12.338089 31824 net.cpp:408] rpn_cls_prob -> rpn_cls_prob
I0129 14:23:12.338439 31824 net.cpp:150] Setting up rpn_cls_prob
I0129 14:23:12.338448 31824 net.cpp:157] Top shape: 1 2 117 13 (3042)
I0129 14:23:12.338449 31824 net.cpp:165] Memory required for data: 21180468
I0129 14:23:12.338452 31824 layer_factory.hpp:77] Creating layer rpn_cls_prob_reshape
I0129 14:23:12.338457 31824 net.cpp:100] Creating Layer rpn_cls_prob_reshape
I0129 14:23:12.338459 31824 net.cpp:434] rpn_cls_prob_reshape <- rpn_cls_prob
I0129 14:23:12.338464 31824 net.cpp:408] rpn_cls_prob_reshape -> rpn_cls_prob_reshape
I0129 14:23:12.338481 31824 net.cpp:150] Setting up rpn_cls_prob_reshape
I0129 14:23:12.338485 31824 net.cpp:157] Top shape: 1 18 13 13 (3042)
I0129 14:23:12.338487 31824 net.cpp:165] Memory required for data: 21192636
I0129 14:23:12.338488 31824 layer_factory.hpp:77] Creating layer proposal
I0129 14:23:12.371126 31824 net.cpp:100] Creating Layer proposal
I0129 14:23:12.371143 31824 net.cpp:434] proposal <- rpn_cls_prob_reshape
I0129 14:23:12.371148 31824 net.cpp:434] proposal <- rpn_bbox_pred
I0129 14:23:12.371150 31824 net.cpp:434] proposal <- im_info
I0129 14:23:12.371155 31824 net.cpp:408] proposal -> rois
I0129 14:23:12.371657 31824 net.cpp:150] Setting up proposal
I0129 14:23:12.371668 31824 net.cpp:157] Top shape: 1 5 (5)
I0129 14:23:12.371670 31824 net.cpp:165] Memory required for data: 21192656
I0129 14:23:12.371673 31824 layer_factory.hpp:77] Creating layer roi_pool5
I0129 14:23:12.371681 31824 net.cpp:100] Creating Layer roi_pool5
I0129 14:23:12.371685 31824 net.cpp:434] roi_pool5 <- conv5_relu5_0_split_1
I0129 14:23:12.371687 31824 net.cpp:434] roi_pool5 <- rois
I0129 14:23:12.371690 31824 net.cpp:408] roi_pool5 -> pool5
I0129 14:23:12.371695 31824 roi_pooling_layer.cpp:30] Spatial scale: 0.0625
I0129 14:23:12.371729 31824 net.cpp:150] Setting up roi_pool5
I0129 14:23:12.371733 31824 net.cpp:157] Top shape: 1 512 6 6 (18432)
I0129 14:23:12.371736 31824 net.cpp:165] Memory required for data: 21266384
I0129 14:23:12.371737 31824 layer_factory.hpp:77] Creating layer fc6
I0129 14:23:12.371742 31824 net.cpp:100] Creating Layer fc6
I0129 14:23:12.371742 31824 net.cpp:434] fc6 <- pool5
I0129 14:23:12.371747 31824 net.cpp:408] fc6 -> fc6
I0129 14:23:12.480020 31824 net.cpp:150] Setting up fc6
I0129 14:23:12.480049 31824 net.cpp:157] Top shape: 1 4096 (4096)
I0129 14:23:12.480051 31824 net.cpp:165] Memory required for data: 21282768
I0129 14:23:12.480064 31824 layer_factory.hpp:77] Creating layer relu6
I0129 14:23:12.480072 31824 net.cpp:100] Creating Layer relu6
I0129 14:23:12.480073 31824 net.cpp:434] relu6 <- fc6
I0129 14:23:12.480077 31824 net.cpp:395] relu6 -> fc6 (in-place)
I0129 14:23:12.480285 31824 net.cpp:150] Setting up relu6
I0129 14:23:12.480293 31824 net.cpp:157] Top shape: 1 4096 (4096)
I0129 14:23:12.480309 31824 net.cpp:165] Memory required for data: 21299152
I0129 14:23:12.480310 31824 layer_factory.hpp:77] Creating layer drop6
I0129 14:23:12.480315 31824 net.cpp:100] Creating Layer drop6
I0129 14:23:12.480316 31824 net.cpp:434] drop6 <- fc6
I0129 14:23:12.480319 31824 net.cpp:395] drop6 -> fc6 (in-place)
I0129 14:23:12.480336 31824 net.cpp:150] Setting up drop6
I0129 14:23:12.480340 31824 net.cpp:157] Top shape: 1 4096 (4096)
I0129 14:23:12.480340 31824 net.cpp:165] Memory required for data: 21315536
I0129 14:23:12.480342 31824 layer_factory.hpp:77] Creating layer fc7
I0129 14:23:12.480346 31824 net.cpp:100] Creating Layer fc7
I0129 14:23:12.480347 31824 net.cpp:434] fc7 <- fc6
I0129 14:23:12.480350 31824 net.cpp:408] fc7 -> fc7
I0129 14:23:12.486445 31824 net.cpp:150] Setting up fc7
I0129 14:23:12.486484 31824 net.cpp:157] Top shape: 1 1024 (1024)
I0129 14:23:12.486485 31824 net.cpp:165] Memory required for data: 21319632
I0129 14:23:12.486506 31824 layer_factory.hpp:77] Creating layer relu7
I0129 14:23:12.486515 31824 net.cpp:100] Creating Layer relu7
I0129 14:23:12.486517 31824 net.cpp:434] relu7 <- fc7
I0129 14:23:12.486523 31824 net.cpp:395] relu7 -> fc7 (in-place)
I0129 14:23:12.486707 31824 net.cpp:150] Setting up relu7
I0129 14:23:12.486711 31824 net.cpp:157] Top shape: 1 1024 (1024)
I0129 14:23:12.486713 31824 net.cpp:165] Memory required for data: 21323728
I0129 14:23:12.486729 31824 layer_factory.hpp:77] Creating layer drop7
I0129 14:23:12.486733 31824 net.cpp:100] Creating Layer drop7
I0129 14:23:12.486735 31824 net.cpp:434] drop7 <- fc7
I0129 14:23:12.486738 31824 net.cpp:395] drop7 -> fc7 (in-place)
I0129 14:23:12.486753 31824 net.cpp:150] Setting up drop7
I0129 14:23:12.486757 31824 net.cpp:157] Top shape: 1 1024 (1024)
I0129 14:23:12.486758 31824 net.cpp:165] Memory required for data: 21327824
I0129 14:23:12.486759 31824 layer_factory.hpp:77] Creating layer fc7_drop7_0_split
I0129 14:23:12.486768 31824 net.cpp:100] Creating Layer fc7_drop7_0_split
I0129 14:23:12.486769 31824 net.cpp:434] fc7_drop7_0_split <- fc7
I0129 14:23:12.486771 31824 net.cpp:408] fc7_drop7_0_split -> fc7_drop7_0_split_0
I0129 14:23:12.486775 31824 net.cpp:408] fc7_drop7_0_split -> fc7_drop7_0_split_1
I0129 14:23:12.486814 31824 net.cpp:150] Setting up fc7_drop7_0_split
I0129 14:23:12.486819 31824 net.cpp:157] Top shape: 1 1024 (1024)
I0129 14:23:12.486819 31824 net.cpp:157] Top shape: 1 1024 (1024)
I0129 14:23:12.486820 31824 net.cpp:165] Memory required for data: 21336016
I0129 14:23:12.486822 31824 layer_factory.hpp:77] Creating layer cls_score
I0129 14:23:12.486827 31824 net.cpp:100] Creating Layer cls_score
I0129 14:23:12.486829 31824 net.cpp:434] cls_score <- fc7_drop7_0_split_0
I0129 14:23:12.486832 31824 net.cpp:408] cls_score -> cls_score
I0129 14:23:12.486910 31824 net.cpp:150] Setting up cls_score
I0129 14:23:12.486927 31824 net.cpp:157] Top shape: 1 2 (2)
I0129 14:23:12.486927 31824 net.cpp:165] Memory required for data: 21336024
I0129 14:23:12.486930 31824 layer_factory.hpp:77] Creating layer bbox_pred
I0129 14:23:12.486934 31824 net.cpp:100] Creating Layer bbox_pred
I0129 14:23:12.486950 31824 net.cpp:434] bbox_pred <- fc7_drop7_0_split_1
I0129 14:23:12.486953 31824 net.cpp:408] bbox_pred -> bbox_pred
I0129 14:23:12.487092 31824 net.cpp:150] Setting up bbox_pred
I0129 14:23:12.487097 31824 net.cpp:157] Top shape: 1 8 (8)
I0129 14:23:12.487097 31824 net.cpp:165] Memory required for data: 21336056
I0129 14:23:12.487114 31824 layer_factory.hpp:77] Creating layer cls_prob
I0129 14:23:12.487118 31824 net.cpp:100] Creating Layer cls_prob
I0129 14:23:12.487119 31824 net.cpp:434] cls_prob <- cls_score
I0129 14:23:12.487139 31824 net.cpp:408] cls_prob -> cls_prob
I0129 14:23:12.487530 31824 net.cpp:150] Setting up cls_prob
I0129 14:23:12.487536 31824 net.cpp:157] Top shape: 1 2 (2)
I0129 14:23:12.487552 31824 net.cpp:165] Memory required for data: 21336064
I0129 14:23:12.487555 31824 net.cpp:228] cls_prob does not need backward computation.
I0129 14:23:12.487556 31824 net.cpp:228] bbox_pred does not need backward computation.
I0129 14:23:12.487558 31824 net.cpp:228] cls_score does not need backward computation.
I0129 14:23:12.487560 31824 net.cpp:228] fc7_drop7_0_split does not need backward computation.
…
