…
stepsize: 50000
snapshot: 0
snapshot_prefix: "zf_faster_rcnn"
average_loss: 100
iter_size: 2
I0104 23:58:51.167681  2808 solver.cpp:81] Creating training net from train_net file: models/pascal_voc/ZF/faster_rcnn_end2end/train.prototxt
I0104 23:58:51.196676  2808 net.cpp:58] Initializing net from parameters: 
name: "ZF"
state {
  phase: TRAIN
}
layer {
  name: "input-data"
  type: "Python"
  top: "data"
  top: "im_info"
  top: "gt_boxes"
  python_param {
    module: "roi_data_layer.layer"
    layer: "RoIDataLayer"
    param_str: "\'num_classes\': 2"
  }
}
layer {
  name: "conv1"
  type: "Convolution"
  bottom: "data"
  top: "conv1"
  param {
    lr_mult: 1
  }
  param {
    lr_mult: 2
  }
  convolution_param {
    num_output: 96
    pad: 3
    kernel_size: 7
    stride: 2
  }
}
layer {
  name: "relu1"
  type: "ReLU"
  bottom: "conv1"
  top: "conv1"
}
layer {
  name: "norm1"
  type: "LRN"
  bottom: "conv1"
  top: "norm1"
  lrn_param {
    local_size: 3
    alpha: 5e-05
    beta: 0.75
    norm_region: WITHIN_CHANNEL
    engine: CAFFE
  }
}
layer {
  name: "pool1"
  type: "Pooling"
  bottom: "norm1"
  top: "pool1"
  pooling_param {
    pool: MAX
    kernel_size: 3
    stride: 2
    pad: 1
  }
}
layer {
  name: "conv2"
  type: "Convolution"
  bottom: "pool1"
  top: "conv2"
  param {
    lr_mult: 1
  }
  param {
    lr_mult: 2
  }
  convolution_param {
    num_output: 256
    pad: 2
    kernel_size: 5
    stride: 2
  }
}
layer {
  name: "relu2"
  type: "ReLU"
  bottom: "conv2"
  top: "conv2"
}
layer {
  name: "norm2"
  type: "LRN"
  bottom: "conv2"
  top: "norm2"
  lrn_param {
    local_size: 3
    alpha: 5e-05
    beta: 0.75
    norm_region: WITHIN_CHANNEL
    engine: CAFFE
  }
}
layer {
  name: "pool2"
  type: "Pooling"
  bottom: "norm2"
  top: "pool2"
  pooling_param {
    pool: MAX
    kernel_size: 3
    stride: 2
    pad: 1
  }
}
layer {
  name: "conv3"
  type: "Convolution"
  bottom: "pool2"
  top: "conv3"
  param {
    lr_mult: 1
  }
  param {
    lr_mult: 2
  }
  convolution_param {
    num_output: 384
    pad: 1
    kernel_size: 3
    stride: 1
  }
}
layer {
  name: "relu3"
  type: "ReLU"
  bottom: "conv3"
  top: "conv3"
}
layer {
  name: "conv4"
  type: "Convolution"
  bottom: "conv3"
  top: "conv4"
  param {
    lr_mult: 1
  }
  param {
    lr_mult: 2
  }
  convolution_param {
    num_output: 384
    pad: 1
    kernel_size: 3
    stride: 1
  }
}
layer {
  name: "relu4"
  type: "ReLU"
  bottom: "conv4"
  top: "conv4"
}
layer {
  name: "conv5"
  type: "Convolution"
  bottom: "conv4"
  top: "conv5"
  param {
    lr_mult: 1
  }
  param {
    lr_mult: 2
  }
  convolution_param {
    num_output: 256
    pad: 1
    kernel_size: 3
    stride: 1
  }
}
layer {
  name: "relu5"
  type: "ReLU"
  bottom: "conv5"
  top: "conv5"
}
layer {
  name: "rpn_conv/3x3"
  type: "Convolution"
  bottom: "conv5"
  top: "rpn/output"
  param {
    lr_mult: 1
  }
  param {
    lr_mult: 2
  }
  convolution_param {
    num_output: 256
    pad: 1
    kernel_size: 3
    stride: 1
    weight_filler {
      type: "gaussian"
      std: 0.01
    }
    bias_filler {
      type: "constant"
      value: 0
    }
  }
}
layer {
  name: "rpn_relu/3x3"
  type: "ReLU"
  bottom: "rpn/output"
  top: "rpn/output"
}
layer {
  name: "rpn_cls_score"
  type: "Convolution"
  bottom: "rpn/output"
  top: "rpn_cls_score"
  param {
    lr_mult: 1
  }
  param {
    lr_mult: 2
  }
  convolution_param {
    num_output: 18
    pad: 0
    kernel_size: 1
    stride: 1
    weight_filler {
      type: "gaussian"
      std: 0.01
    }
    bias_filler {
      type: "constant"
      value: 0
    }
  }
}
layer {
  name: "rpn_bbox_pred"
  type: "Convolution"
  bottom: "rpn/output"
  top: "rpn_bbox_pred"
  param {
    lr_mult: 1
  }
  param {
    lr_mult: 2
  }
  convolution_param {
    num_output: 36
    pad: 0
    kernel_size: 1
    stride: 1
    weight_filler {
      type: "gaussian"
      std: 0.01
    }
    bias_filler {
      type: "constant"
      value: 0
    }
  }
}
layer {
  name: "rpn_cls_score_reshape"
  type: "Reshape"
  bottom: "rpn_cls_score"
  top: "rpn_cls_score_reshape"
  reshape_param {
    shape {
      dim: 0
      dim: 2
      dim: -1
      dim: 0
    }
  }
}
layer {
  name: "rpn-data"
  type: "Python"
  bottom: "rpn_cls_score"
  bottom: "gt_boxes"
  bottom: "im_info"
  bottom: "data"
  top: "rpn_labels"
  top: "rpn_bbox_targets"
  top: "rpn_bbox_inside_weights"
  top: "rpn_bbox_outside_weights"
  python_param {
    module: "rpn.anchor_target_layer"
    layer: "AnchorTargetLayer"
    param_str: "\'feat_stride\': 16"
  }
}
layer {
  name: "rpn_loss_cls"
  type: "SoftmaxWithLoss"
  bottom: "rpn_cls_score_reshape"
  bottom: "rpn_labels"
  top: "rpn_cls_loss"
  loss_weight: 1
  propagate_down: true
  propagate_down: false
  loss_param {
    ignore_label: -1
    normalize: true
  }
}
layer {
  name: "rpn_loss_bbox"
  type: "SmoothL1Loss"
  bottom: "rpn_bbox_pred"
  bottom: "rpn_bbox_targets"
  bottom: "rpn_bbox_inside_weights"
  bottom: "rpn_bbox_outside_weights"
  top: "rpn_loss_bbox"
  loss_weight: 1
  smooth_l1_loss_param {
    sigma: 3
  }
}
layer {
  name: "rpn_cls_prob"
  type: "Softmax"
  bottom: "rpn_cls_score_reshape"
  top: "rpn_cls_prob"
}
layer {
  name: "rpn_cls_prob_reshape"
  type: "Reshape"
  bottom: "rpn_cls_prob"
  top: "rpn_cls_prob_reshape"
  reshape_param {
    shape {
      dim: 0
      dim: 18
      dim: -1
      dim: 0
    }
  }
}
layer {
  name: "proposal"
  type: "Python"
  bottom: "rpn_cls_prob_reshape"
  bottom: "rpn_bbox_pred"
  bottom: "im_info"
  top: "rpn_rois"
  python_param {
    module: "rpn.proposal_layer"
    layer: "ProposalLayer"
    param_str: "\'feat_stride\': 16"
  }
}
layer {
  name: "roi-data"
  type: "Python"
  bottom: "rpn_rois"
  bottom: "gt_boxes"
  top: "rois"
  top: "labels"
  top: "bbox_targets"
  top: "bbox_inside_weights"
  top: "bbox_outside_weights"
  python_param {
    module: "rpn.proposal_target_layer"
    layer: "ProposalTargetLayer"
    param_str: "\'num_classes\': 2"
  }
}
layer {
  name: "roi_pool_conv5"
  type: "ROIPooling"
  bottom: "conv5"
  bottom: "rois"
  top: "roi_pool_conv5"
  roi_pooling_param {
    pooled_h: 6
    pooled_w: 6
    spatial_scale: 0.0625
  }
}
layer {
  name: "fc6"
  type: "InnerProduct"
  bottom: "roi_pool_conv5"
  top: "fc6"
  param {
    lr_mult: 1
  }
  param {
    lr_mult: 2
  }
  inner_product_param {
    num_output: 4096
  }
}
layer {
  name: "relu6"
  type: "ReLU"
  bottom: "fc6"
  top: "fc6"
}
layer {
  name: "drop6"
  type: "Dropout"
  bottom: "fc6"
  top: "fc6"
  dropout_param {
    dropout_ratio: 0.5
    scale_train: false
  }
}
layer {
  name: "fc7"
  type: "InnerProduct"
  bottom: "fc6"
  top: "fc7"
  param {
    lr_mult: 1
  }
  param {
    lr_mult: 2
  }
  inner_product_param {
    num_output: 4096
  }
}
layer {
  name: "relu7"
  type: "ReLU"
  bottom: "fc7"
  top: "fc7"
}
layer {
  name: "drop7"
  type: "Dropout"
  bottom: "fc7"
  top: "fc7"
  dropout_param {
    dropout_ratio: 0.5
    scale_train: false
  }
}
layer {
  name: "cls_score"
  type: "InnerProduct"
  bottom: "fc7"
  top: "cls_score"
  param {
    lr_mult: 1
  }
  param {
    lr_mult: 2
  }
  inner_product_param {
    num_output: 2
    weight_filler {
      type: "gaussian"
      std: 0.01
    }
    bias_filler {
      type: "constant"
      value: 0
    }
  }
}
layer {
  name: "bbox_pred"
  type: "InnerProduct"
  bottom: "fc7"
  top: "bbox_pred"
  param {
    lr_mult: 1
  }
  param {
    lr_mult: 2
  }
  inner_product_param {
    num_output: 8
    weight_filler {
      type: "gaussian"
      std: 0.001
    }
    bias_filler {
      type: "constant"
      value: 0
    }
  }
}
layer {
  name: "loss_cls"
  type: "SoftmaxWithLoss"
  bottom: "cls_score"
  bottom: "labels"
  top: "cls_loss"
  loss_weight: 1
  propagate_down: true
  propagate_down: false
  loss_param {
    ignore_label: -1
    normalize: true
  }
}
layer {
  name: "loss_bbox"
  type: "SmoothL1Loss"
  bottom: "bbox_pred"
  bottom: "bbox_targets"
  bottom: "bbox_inside_weights"
  bottom: "bbox_outside_weights"
  top: "bbox_loss"
  loss_weight: 1
}
I0104 23:58:51.197322  2808 layer_factory.hpp:77] Creating layer input-data
I0104 23:58:51.355341  2808 net.cpp:100] Creating Layer input-data
I0104 23:58:51.355686  2808 net.cpp:408] input-data -> data
I0104 23:58:51.355731  2808 net.cpp:408] input-data -> im_info
I0104 23:58:51.355749  2808 net.cpp:408] input-data -> gt_boxes
RoiDataLayer: name_to_top: {'gt_boxes': 2, 'data': 0, 'im_info': 1}
I0104 23:58:51.659129  2808 net.cpp:150] Setting up input-data
I0104 23:58:51.659178  2808 net.cpp:157] Top shape: 1 3 700 1000 (2100000)
I0104 23:58:51.659191  2808 net.cpp:157] Top shape: 1 3 (3)
I0104 23:58:51.659202  2808 net.cpp:157] Top shape: 1 4 (4)
I0104 23:58:51.659210  2808 net.cpp:165] Memory required for data: 8400028
I0104 23:58:51.659224  2808 layer_factory.hpp:77] Creating layer data_input-data_0_split
I0104 23:58:51.659247  2808 net.cpp:100] Creating Layer data_input-data_0_split
I0104 23:58:51.659256  2808 net.cpp:434] data_input-data_0_split <- data
I0104 23:58:51.659273  2808 net.cpp:408] data_input-data_0_split -> data_input-data_0_split_0
I0104 23:58:51.659301  2808 net.cpp:408] data_input-data_0_split -> data_input-data_0_split_1
I0104 23:58:51.659399  2808 net.cpp:150] Setting up data_input-data_0_split
I0104 23:58:51.659416  2808 net.cpp:157] Top shape: 1 3 700 1000 (2100000)
I0104 23:58:51.659428  2808 net.cpp:157] Top shape: 1 3 700 1000 (2100000)
I0104 23:58:51.659436  2808 net.cpp:165] Memory required for data: 25200028
I0104 23:58:51.659445  2808 layer_factory.hpp:77] Creating layer im_info_input-data_1_split
I0104 23:58:51.659458  2808 net.cpp:100] Creating Layer im_info_input-data_1_split
I0104 23:58:51.659466  2808 net.cpp:434] im_info_input-data_1_split <- im_info
I0104 23:58:51.659481  2808 net.cpp:408] im_info_input-data_1_split -> im_info_input-data_1_split_0
I0104 23:58:51.659497  2808 net.cpp:408] im_info_input-data_1_split -> im_info_input-data_1_split_1
I0104 23:58:51.659575  2808 net.cpp:150] Setting up im_info_input-data_1_split
I0104 23:58:51.659590  2808 net.cpp:157] Top shape: 1 3 (3)
I0104 23:58:51.659600  2808 net.cpp:157] Top shape: 1 3 (3)
I0104 23:58:51.659607  2808 net.cpp:165] Memory required for data: 25200052
I0104 23:58:51.659615  2808 layer_factory.hpp:77] Creating layer gt_boxes_input-data_2_split
I0104 23:58:51.659626  2808 net.cpp:100] Creating Layer gt_boxes_input-data_2_split
I0104 23:58:51.659634  2808 net.cpp:434] gt_boxes_input-data_2_split <- gt_boxes
I0104 23:58:51.659646  2808 net.cpp:408] gt_boxes_input-data_2_split -> gt_boxes_input-data_2_split_0
I0104 23:58:51.659662  2808 net.cpp:408] gt_boxes_input-data_2_split -> gt_boxes_input-data_2_split_1
I0104 23:58:51.659742  2808 net.cpp:150] Setting up gt_boxes_input-data_2_split
I0104 23:58:51.659790  2808 net.cpp:157] Top shape: 1 4 (4)
I0104 23:58:51.659804  2808 net.cpp:157] Top shape: 1 4 (4)
I0104 23:58:51.659811  2808 net.cpp:165] Memory required for data: 25200084
I0104 23:58:51.659819  2808 layer_factory.hpp:77] Creating layer conv1
I0104 23:58:51.659857  2808 net.cpp:100] Creating Layer conv1
I0104 23:58:51.659869  2808 net.cpp:434] conv1 <- data_input-data_0_split_0
I0104 23:58:51.659883  2808 net.cpp:408] conv1 -> conv1
I0104 23:58:52.785351  2808 net.cpp:150] Setting up conv1
I0104 23:58:52.785382  2808 net.cpp:157] Top shape: 1 96 350 500 (16800000)
I0104 23:58:52.785387  2808 net.cpp:165] Memory required for data: 92400084
I0104 23:58:52.785406  2808 layer_factory.hpp:77] Creating layer relu1
I0104 23:58:52.785419  2808 net.cpp:100] Creating Layer relu1
I0104 23:58:52.785425  2808 net.cpp:434] relu1 <- conv1
I0104 23:58:52.785432  2808 net.cpp:395] relu1 -> conv1 (in-place)
I0104 23:58:52.785696  2808 net.cpp:150] Setting up relu1
I0104 23:58:52.785709  2808 net.cpp:157] Top shape: 1 96 350 500 (16800000)
I0104 23:58:52.785714  2808 net.cpp:165] Memory required for data: 159600084
I0104 23:58:52.785719  2808 layer_factory.hpp:77] Creating layer norm1
I0104 23:58:52.785728  2808 net.cpp:100] Creating Layer norm1
I0104 23:58:52.785732  2808 net.cpp:434] norm1 <- conv1
I0104 23:58:52.785739  2808 net.cpp:408] norm1 -> norm1
I0104 23:58:52.785883  2808 net.cpp:150] Setting up norm1
I0104 23:58:52.785893  2808 net.cpp:157] Top shape: 1 96 350 500 (16800000)
I0104 23:58:52.785897  2808 net.cpp:165] Memory required for data: 226800084
I0104 23:58:52.785902  2808 layer_factory.hpp:77] Creating layer pool1
I0104 23:58:52.785908  2808 net.cpp:100] Creating Layer pool1
I0104 23:58:52.785912  2808 net.cpp:434] pool1 <- norm1
I0104 23:58:52.785918  2808 net.cpp:408] pool1 -> pool1
I0104 23:58:52.785961  2808 net.cpp:150] Setting up pool1
I0104 23:58:52.785969  2808 net.cpp:157] Top shape: 1 96 176 251 (4240896)
I0104 23:58:52.785974  2808 net.cpp:165] Memory required for data: 243763668
I0104 23:58:52.785977  2808 layer_factory.hpp:77] Creating layer conv2
I0104 23:58:52.785991  2808 net.cpp:100] Creating Layer conv2
I0104 23:58:52.785997  2808 net.cpp:434] conv2 <- pool1
I0104 23:58:52.786005  2808 net.cpp:408] conv2 -> conv2
I0104 23:58:52.792016  2808 net.cpp:150] Setting up conv2
I0104 23:58:52.792032  2808 net.cpp:157] Top shape: 1 256 88 126 (2838528)
I0104 23:58:52.792035  2808 net.cpp:165] Memory required for data: 255117780
I0104 23:58:52.792045  2808 layer_factory.hpp:77] Creating layer relu2
I0104 23:58:52.792052  2808 net.cpp:100] Creating Layer relu2
I0104 23:58:52.792057  2808 net.cpp:434] relu2 <- conv2
I0104 23:58:52.792062  2808 net.cpp:395] relu2 -> conv2 (in-place)
I0104 23:58:52.792258  2808 net.cpp:150] Setting up relu2
I0104 23:58:52.792268  2808 net.cpp:157] Top shape: 1 256 88 126 (2838528)
I0104 23:58:52.792270  2808 net.cpp:165] Memory required for data: 266471892
I0104 23:58:52.792274  2808 layer_factory.hpp:77] Creating layer norm2
I0104 23:58:52.792280  2808 net.cpp:100] Creating Layer norm2
I0104 23:58:52.792284  2808 net.cpp:434] norm2 <- conv2
I0104 23:58:52.792289  2808 net.cpp:408] norm2 -> norm2
I0104 23:58:52.792397  2808 net.cpp:150] Setting up norm2
I0104 23:58:52.792405  2808 net.cpp:157] Top shape: 1 256 88 126 (2838528)
I0104 23:58:52.792408  2808 net.cpp:165] Memory required for data: 277826004
I0104 23:58:52.792412  2808 layer_factory.hpp:77] Creating layer pool2
I0104 23:58:52.792417  2808 net.cpp:100] Creating Layer pool2
I0104 23:58:52.792419  2808 net.cpp:434] pool2 <- norm2
I0104 23:58:52.792424  2808 net.cpp:408] pool2 -> pool2
I0104 23:58:52.792462  2808 net.cpp:150] Setting up pool2
I0104 23:58:52.792469  2808 net.cpp:157] Top shape: 1 256 45 64 (737280)
I0104 23:58:52.792471  2808 net.cpp:165] Memory required for data: 280775124
I0104 23:58:52.792474  2808 layer_factory.hpp:77] Creating layer conv3
I0104 23:58:52.792482  2808 net.cpp:100] Creating Layer conv3
I0104 23:58:52.792485  2808 net.cpp:434] conv3 <- pool2
I0104 23:58:52.792490  2808 net.cpp:408] conv3 -> conv3
I0104 23:58:52.805840  2808 net.cpp:150] Setting up conv3
I0104 23:58:52.805893  2808 net.cpp:157] Top shape: 1 384 45 64 (1105920)
I0104 23:58:52.805897  2808 net.cpp:165] Memory required for data: 285198804
I0104 23:58:52.805928  2808 layer_factory.hpp:77] Creating layer relu3
I0104 23:58:52.805945  2808 net.cpp:100] Creating Layer relu3
I0104 23:58:52.805950  2808 net.cpp:434] relu3 <- conv3
I0104 23:58:52.805960  2808 net.cpp:395] relu3 -> conv3 (in-place)
I0104 23:58:52.806377  2808 net.cpp:150] Setting up relu3
I0104 23:58:52.806388  2808 net.cpp:157] Top shape: 1 384 45 64 (1105920)
I0104 23:58:52.806391  2808 net.cpp:165] Memory required for data: 289622484
I0104 23:58:52.806393  2808 layer_factory.hpp:77] Creating layer conv4
I0104 23:58:52.806401  2808 net.cpp:100] Creating Layer conv4
I0104 23:58:52.806404  2808 net.cpp:434] conv4 <- conv3
I0104 23:58:52.806411  2808 net.cpp:408] conv4 -> conv4
I0104 23:58:52.809337  2808 net.cpp:150] Setting up conv4
I0104 23:58:52.809357  2808 net.cpp:157] Top shape: 1 384 45 64 (1105920)
I0104 23:58:52.809360  2808 net.cpp:165] Memory required for data: 294046164
I0104 23:58:52.809366  2808 layer_factory.hpp:77] Creating layer relu4
I0104 23:58:52.809373  2808 net.cpp:100] Creating Layer relu4
I0104 23:58:52.809376  2808 net.cpp:434] relu4 <- conv4
I0104 23:58:52.809381  2808 net.cpp:395] relu4 -> conv4 (in-place)
I0104 23:58:52.809533  2808 net.cpp:150] Setting up relu4
I0104 23:58:52.809540  2808 net.cpp:157] Top shape: 1 384 45 64 (1105920)
I0104 23:58:52.809543  2808 net.cpp:165] Memory required for data: 298469844
I0104 23:58:52.809545  2808 layer_factory.hpp:77] Creating layer conv5
I0104 23:58:52.809556  2808 net.cpp:100] Creating Layer conv5
I0104 23:58:52.809559  2808 net.cpp:434] conv5 <- conv4
I0104 23:58:52.809563  2808 net.cpp:408] conv5 -> conv5
I0104 23:58:52.812001  2808 net.cpp:150] Setting up conv5
I0104 23:58:52.812016  2808 net.cpp:157] Top shape: 1 256 45 64 (737280)
I0104 23:58:52.812019  2808 net.cpp:165] Memory required for data: 301418964
I0104 23:58:52.812028  2808 layer_factory.hpp:77] Creating layer relu5
I0104 23:58:52.812034  2808 net.cpp:100] Creating Layer relu5
I0104 23:58:52.812041  2808 net.cpp:434] relu5 <- conv5
I0104 23:58:52.812046  2808 net.cpp:395] relu5 -> conv5 (in-place)
I0104 23:58:52.812197  2808 net.cpp:150] Setting up relu5
I0104 23:58:52.812204  2808 net.cpp:157] Top shape: 1 256 45 64 (737280)
I0104 23:58:52.812207  2808 net.cpp:165] Memory required for data: 304368084
I0104 23:58:52.812209  2808 layer_factory.hpp:77] Creating layer conv5_relu5_0_split
I0104 23:58:52.812214  2808 net.cpp:100] Creating Layer conv5_relu5_0_split
I0104 23:58:52.812217  2808 net.cpp:434] conv5_relu5_0_split <- conv5
I0104 23:58:52.812222  2808 net.cpp:408] conv5_relu5_0_split -> conv5_relu5_0_split_0
I0104 23:58:52.812227  2808 net.cpp:408] conv5_relu5_0_split -> conv5_relu5_0_split_1
I0104 23:58:52.812263  2808 net.cpp:150] Setting up conv5_relu5_0_split
I0104 23:58:52.812268  2808 net.cpp:157] Top shape: 1 256 45 64 (737280)
I0104 23:58:52.812271  2808 net.cpp:157] Top shape: 1 256 45 64 (737280)
I0104 23:58:52.812273  2808 net.cpp:165] Memory required for data: 310266324
I0104 23:58:52.812275  2808 layer_factory.hpp:77] Creating layer rpn_conv/3x3
I0104 23:58:52.812283  2808 net.cpp:100] Creating Layer rpn_conv/3x3
I0104 23:58:52.812288  2808 net.cpp:434] rpn_conv/3x3 <- conv5_relu5_0_split_0
I0104 23:58:52.812294  2808 net.cpp:408] rpn_conv/3x3 -> rpn/output
I0104 23:58:52.818835  2808 net.cpp:150] Setting up rpn_conv/3x3
I0104 23:58:52.818851  2808 net.cpp:157] Top shape: 1 256 45 64 (737280)
I0104 23:58:52.818855  2808 net.cpp:165] Memory required for data: 313215444
I0104 23:58:52.818861  2808 layer_factory.hpp:77] Creating layer rpn_relu/3x3
I0104 23:58:52.818866  2808 net.cpp:100] Creating Layer rpn_relu/3x3
I0104 23:58:52.818869  2808 net.cpp:434] rpn_relu/3x3 <- rpn/output
I0104 23:58:52.818874  2808 net.cpp:395] rpn_relu/3x3 -> rpn/output (in-place)
I0104 23:58:52.819010  2808 net.cpp:150] Setting up rpn_relu/3x3
I0104 23:58:52.819015  2808 net.cpp:157] Top shape: 1 256 45 64 (737280)
I0104 23:58:52.819017  2808 net.cpp:165] Memory required for data: 316164564
I0104 23:58:52.819020  2808 layer_factory.hpp:77] Creating layer rpn/output_rpn_relu/3x3_0_split
I0104 23:58:52.819025  2808 net.cpp:100] Creating Layer rpn/output_rpn_relu/3x3_0_split
I0104 23:58:52.819027  2808 net.cpp:434] rpn/output_rpn_relu/3x3_0_split <- rpn/output
I0104 23:58:52.819031  2808 net.cpp:408] rpn/output_rpn_relu/3x3_0_split -> rpn/output_rpn_relu/3x3_0_split_0
I0104 23:58:52.819037  2808 net.cpp:408] rpn/output_rpn_relu/3x3_0_split -> rpn/output_rpn_relu/3x3_0_split_1
I0104 23:58:52.819067  2808 net.cpp:150] Setting up rpn/output_rpn_relu/3x3_0_split
I0104 23:58:52.819072  2808 net.cpp:157] Top shape: 1 256 45 64 (737280)
I0104 23:58:52.819087  2808 net.cpp:157] Top shape: 1 256 45 64 (737280)
I0104 23:58:52.819088  2808 net.cpp:165] Memory required for data: 322062804
I0104 23:58:52.819090  2808 layer_factory.hpp:77] Creating layer rpn_cls_score
I0104 23:58:52.819097  2808 net.cpp:100] Creating Layer rpn_cls_score
I0104 23:58:52.819099  2808 net.cpp:434] rpn_cls_score <- rpn/output_rpn_relu/3x3_0_split_0
I0104 23:58:52.819104  2808 net.cpp:408] rpn_cls_score -> rpn_cls_score
I0104 23:58:52.819830  2808 net.cpp:150] Setting up rpn_cls_score
I0104 23:58:52.819838  2808 net.cpp:157] Top shape: 1 18 45 64 (51840)
I0104 23:58:52.819839  2808 net.cpp:165] Memory required for data: 322270164
I0104 23:58:52.819844  2808 layer_factory.hpp:77] Creating layer rpn_cls_score_rpn_cls_score_0_split
I0104 23:58:52.819847  2808 net.cpp:100] Creating Layer rpn_cls_score_rpn_cls_score_0_split
I0104 23:58:52.819850  2808 net.cpp:434] rpn_cls_score_rpn_cls_score_0_split <- rpn_cls_score
I0104 23:58:52.819854  2808 net.cpp:408] rpn_cls_score_rpn_cls_score_0_split -> rpn_cls_score_rpn_cls_score_0_split_0
I0104 23:58:52.819857  2808 net.cpp:408] rpn_cls_score_rpn_cls_score_0_split -> rpn_cls_score_rpn_cls_score_0_split_1
I0104 23:58:52.819883  2808 net.cpp:150] Setting up rpn_cls_score_rpn_cls_score_0_split
I0104 23:58:52.819887  2808 net.cpp:157] Top shape: 1 18 45 64 (51840)
I0104 23:58:52.819890  2808 net.cpp:157] Top shape: 1 18 45 64 (51840)
I0104 23:58:52.819891  2808 net.cpp:165] Memory required for data: 322684884
I0104 23:58:52.819893  2808 layer_factory.hpp:77] Creating layer rpn_bbox_pred
I0104 23:58:52.819900  2808 net.cpp:100] Creating Layer rpn_bbox_pred
I0104 23:58:52.819902  2808 net.cpp:434] rpn_bbox_pred <- rpn/output_rpn_relu/3x3_0_split_1
I0104 23:58:52.819906  2808 net.cpp:408] rpn_bbox_pred -> rpn_bbox_pred
I0104 23:58:52.820652  2808 net.cpp:150] Setting up rpn_bbox_pred
I0104 23:58:52.820662  2808 net.cpp:157] Top shape: 1 36 45 64 (103680)
I0104 23:58:52.820663  2808 net.cpp:165] Memory required for data: 323099604
I0104 23:58:52.820667  2808 layer_factory.hpp:77] Creating layer rpn_bbox_pred_rpn_bbox_pred_0_split
I0104 23:58:52.820670  2808 net.cpp:100] Creating Layer rpn_bbox_pred_rpn_bbox_pred_0_split
I0104 23:58:52.820672  2808 net.cpp:434] rpn_bbox_pred_rpn_bbox_pred_0_split <- rpn_bbox_pred
I0104 23:58:52.820677  2808 net.cpp:408] rpn_bbox_pred_rpn_bbox_pred_0_split -> rpn_bbox_pred_rpn_bbox_pred_0_split_0
I0104 23:58:52.820682  2808 net.cpp:408] rpn_bbox_pred_rpn_bbox_pred_0_split -> rpn_bbox_pred_rpn_bbox_pred_0_split_1
I0104 23:58:52.820704  2808 net.cpp:150] Setting up rpn_bbox_pred_rpn_bbox_pred_0_split
I0104 23:58:52.820709  2808 net.cpp:157] Top shape: 1 36 45 64 (103680)
I0104 23:58:52.820713  2808 net.cpp:157] Top shape: 1 36 45 64 (103680)
I0104 23:58:52.820713  2808 net.cpp:165] Memory required for data: 323929044
I0104 23:58:52.820715  2808 layer_factory.hpp:77] Creating layer rpn_cls_score_reshape
I0104 23:58:52.820720  2808 net.cpp:100] Creating Layer rpn_cls_score_reshape
I0104 23:58:52.820722  2808 net.cpp:434] rpn_cls_score_reshape <- rpn_cls_score_rpn_cls_score_0_split_0
I0104 23:58:52.820727  2808 net.cpp:408] rpn_cls_score_reshape -> rpn_cls_score_reshape
I0104 23:58:52.820742  2808 net.cpp:150] Setting up rpn_cls_score_reshape
I0104 23:58:52.820747  2808 net.cpp:157] Top shape: 1 2 405 64 (51840)
I0104 23:58:52.820749  2808 net.cpp:165] Memory required for data: 324136404
I0104 23:58:52.820750  2808 layer_factory.hpp:77] Creating layer rpn_cls_score_reshape_rpn_cls_score_reshape_0_split
I0104 23:58:52.820754  2808 net.cpp:100] Creating Layer rpn_cls_score_reshape_rpn_cls_score_reshape_0_split
I0104 23:58:52.820755  2808 net.cpp:434] rpn_cls_score_reshape_rpn_cls_score_reshape_0_split <- rpn_cls_score_reshape
I0104 23:58:52.820758  2808 net.cpp:408] rpn_cls_score_reshape_rpn_cls_score_reshape_0_split -> rpn_cls_score_reshape_rpn_cls_score_reshape_0_split_0
I0104 23:58:52.820763  2808 net.cpp:408] rpn_cls_score_reshape_rpn_cls_score_reshape_0_split -> rpn_cls_score_reshape_rpn_cls_score_reshape_0_split_1
I0104 23:58:52.820785  2808 net.cpp:150] Setting up rpn_cls_score_reshape_rpn_cls_score_reshape_0_split
I0104 23:58:52.820791  2808 net.cpp:157] Top shape: 1 2 405 64 (51840)
I0104 23:58:52.820796  2808 net.cpp:157] Top shape: 1 2 405 64 (51840)
I0104 23:58:52.820798  2808 net.cpp:165] Memory required for data: 324551124
I0104 23:58:52.820801  2808 layer_factory.hpp:77] Creating layer rpn-data
I0104 23:58:52.854254  2808 net.cpp:100] Creating Layer rpn-data
I0104 23:58:52.854305  2808 net.cpp:434] rpn-data <- rpn_cls_score_rpn_cls_score_0_split_1
I0104 23:58:52.854336  2808 net.cpp:434] rpn-data <- gt_boxes_input-data_2_split_0
I0104 23:58:52.854357  2808 net.cpp:434] rpn-data <- im_info_input-data_1_split_0
I0104 23:58:52.854374  2808 net.cpp:434] rpn-data <- data_input-data_0_split_1
I0104 23:58:52.854403  2808 net.cpp:408] rpn-data -> rpn_labels
I0104 23:58:52.854467  2808 net.cpp:408] rpn-data -> rpn_bbox_targets
I0104 23:58:52.854504  2808 net.cpp:408] rpn-data -> rpn_bbox_inside_weights
I0104 23:58:52.854543  2808 net.cpp:408] rpn-data -> rpn_bbox_outside_weights
I0104 23:58:52.858912  2808 net.cpp:150] Setting up rpn-data
I0104 23:58:52.858968  2808 net.cpp:157] Top shape: 1 1 405 64 (25920)
I0104 23:58:52.858990  2808 net.cpp:157] Top shape: 1 36 45 64 (103680)
I0104 23:58:52.859009  2808 net.cpp:157] Top shape: 1 36 45 64 (103680)
I0104 23:58:52.859027  2808 net.cpp:157] Top shape: 1 36 45 64 (103680)
I0104 23:58:52.859042  2808 net.cpp:165] Memory required for data: 325898964
I0104 23:58:52.859066  2808 layer_factory.hpp:77] Creating layer rpn_loss_cls
I0104 23:58:52.859112  2808 net.cpp:100] Creating Layer rpn_loss_cls
I0104 23:58:52.859130  2808 net.cpp:434] rpn_loss_cls <- rpn_cls_score_reshape_rpn_cls_score_reshape_0_split_0
I0104 23:58:52.859153  2808 net.cpp:434] rpn_loss_cls <- rpn_labels
…
I0104 23:58:52.862648  2808 net.cpp:157] Top shape: (1)
I0104 23:58:52.862661  2808 net.cpp:160]     with loss weight 1
I0104 23:58:52.862684  2808 net.cpp:165] Memory required for data: 325898972
I0104 23:58:52.862697  2808 layer_factory.hpp:77] Creating layer rpn_cls_prob
I0104 23:58:52.862723  2808 net.cpp:100] Creating Layer rpn_cls_prob
I0104 23:58:52.862743  2808 net.cpp:434] rpn_cls_prob <- rpn_cls_score_reshape_rpn_cls_score_reshape_0_split_1
I0104 23:58:52.862771  2808 net.cpp:408] rpn_cls_prob -> rpn_cls_prob
I0104 23:58:52.863492  2808 net.cpp:150] Setting up rpn_cls_prob
I0104 23:58:52.863528  2808 net.cpp:157] Top shape: 1 2 405 64 (51840)
I0104 23:58:52.863548  2808 net.cpp:165] Memory required for data: 326106332
I0104 23:58:52.863562  2808 layer_factory.hpp:77] Creating layer rpn_cls_prob_reshape
I0104 23:58:52.863610  2808 net.cpp:100] Creating Layer rpn_cls_prob_reshape
I0104 23:58:52.863626  2808 net.cpp:434] rpn_cls_prob_reshape <- rpn_cls_prob
I0104 23:58:52.863653  2808 net.cpp:408] rpn_cls_prob_reshape -> rpn_cls_prob_reshape
I0104 23:58:52.863778  2808 net.cpp:150] Setting up rpn_cls_prob_reshape
I0104 23:58:52.863806  2808 net.cpp:157] Top shape: 1 18 45 64 (51840)
I0104 23:58:52.863819  2808 net.cpp:165] Memory required for data: 326313692
I0104 23:58:52.863834  2808 layer_factory.hpp:77] Creating layer proposal
I0104 23:58:52.891788  2808 net.cpp:100] Creating Layer proposal
I0104 23:58:52.891842  2808 net.cpp:434] proposal <- rpn_cls_prob_reshape
I0104 23:58:52.891870  2808 net.cpp:434] proposal <- rpn_bbox_pred_rpn_bbox_pred_0_split_1
I0104 23:58:52.891891  2808 net.cpp:434] proposal <- im_info_input-data_1_split_1
I0104 23:58:52.891919  2808 net.cpp:408] proposal -> rpn_rois
I0104 23:58:52.904346  2808 net.cpp:150] Setting up proposal
I0104 23:58:52.904395  2808 net.cpp:157] Top shape: 1 5 (5)
I0104 23:58:52.904412  2808 net.cpp:165] Memory required for data: 326313712
I0104 23:58:52.904429  2808 layer_factory.hpp:77] Creating layer roi-data
I0104 23:58:52.911128  2808 net.cpp:100] Creating Layer roi-data
I0104 23:58:52.911168  2808 net.cpp:434] roi-data <- rpn_rois
I0104 23:58:52.911195  2808 net.cpp:434] roi-data <- gt_boxes_input-data_2_split_1
I0104 23:58:52.911226  2808 net.cpp:408] roi-data -> rois
I0104 23:58:52.911265  2808 net.cpp:408] roi-data -> labels
I0104 23:58:52.911304  2808 net.cpp:408] roi-data -> bbox_targets
I0104 23:58:52.911340  2808 net.cpp:408] roi-data -> bbox_inside_weights
I0104 23:58:52.911372  2808 net.cpp:408] roi-data -> bbox_outside_weights
I0104 23:58:52.912650  2808 net.cpp:150] Setting up roi-data
I0104 23:58:52.912689  2808 net.cpp:157] Top shape: 1 5 (5)
I0104 23:58:52.912708  2808 net.cpp:157] Top shape: 1 1 (1)
I0104 23:58:52.912725  2808 net.cpp:157] Top shape: 1 8 (8)
I0104 23:58:52.912746  2808 net.cpp:157] Top shape: 1 8 (8)
I0104 23:58:52.912763  2808 net.cpp:157] Top shape: 1 8 (8)
I0104 23:58:52.912781  2808 net.cpp:165] Memory required for data: 326313832
I0104 23:58:52.912796  2808 layer_factory.hpp:77] Creating layer roi_pool_conv5
I0104 23:58:52.912822  2808 net.cpp:100] Creating Layer roi_pool_conv5
I0104 23:58:52.912842  2808 net.cpp:434] roi_pool_conv5 <- conv5_relu5_0_split_1
I0104 23:58:52.912863  2808 net.cpp:434] roi_pool_conv5 <- rois
I0104 23:58:52.912895  2808 net.cpp:408] roi_pool_conv5 -> roi_pool_conv5
I0104 23:58:52.912930  2808 roi_pooling_layer.cpp:30] Spatial scale: 0.0625
I0104 23:58:52.913069  2808 net.cpp:150] Setting up roi_pool_conv5
I0104 23:58:52.913094  2808 net.cpp:157] Top shape: 1 256 6 6 (9216)
I0104 23:58:52.913111  2808 net.cpp:165] Memory required for data: 326350696
I0104 23:58:52.913125  2808 layer_factory.hpp:77] Creating layer fc6
I0104 23:58:52.913156  2808 net.cpp:100] Creating Layer fc6
I0104 23:58:52.913173  2808 net.cpp:434] fc6 <- roi_pool_conv5
I0104 23:58:52.913195  2808 net.cpp:408] fc6 -> fc6
I0104 23:58:52.992028  2808 net.cpp:150] Setting up fc6
I0104 23:58:52.992053  2808 net.cpp:157] Top shape: 1 4096 (4096)
I0104 23:58:52.992054  2808 net.cpp:165] Memory required for data: 326367080
I0104 23:58:52.992086  2808 layer_factory.hpp:77] Creating layer relu6
I0104 23:58:52.992095  2808 net.cpp:100] Creating Layer relu6
I0104 23:58:52.992100  2808 net.cpp:434] relu6 <- fc6
I0104 23:58:52.992106  2808 net.cpp:395] relu6 -> fc6 (in-place)
I0104 23:58:52.992525  2808 net.cpp:150] Setting up relu6
I0104 23:58:52.992532  2808 net.cpp:157] Top shape: 1 4096 (4096)
I0104 23:58:52.992534  2808 net.cpp:165] Memory required for data: 326383464
I0104 23:58:52.992538  2808 layer_factory.hpp:77] Creating layer drop6
I0104 23:58:52.992558  2808 net.cpp:100] Creating Layer drop6
I0104 23:58:52.992563  2808 net.cpp:434] drop6 <- fc6
I0104 23:58:52.992568  2808 net.cpp:395] drop6 -> fc6 (in-place)
I0104 23:58:52.992589  2808 net.cpp:150] Setting up drop6
I0104 23:58:52.992594  2808 net.cpp:157] Top shape: 1 4096 (4096)
I0104 23:58:52.992597  2808 net.cpp:165] Memory required for data: 326399848
I0104 23:58:52.992600  2808 layer_factory.hpp:77] Creating layer fc7
I0104 23:58:52.992606  2808 net.cpp:100] Creating Layer fc7
I0104 23:58:52.992609  2808 net.cpp:434] fc7 <- fc6
I0104 23:58:52.992615  2808 net.cpp:408] fc7 -> fc7
I0104 23:58:53.015846  2808 net.cpp:150] Setting up fc7
I0104 23:58:53.015869  2808 net.cpp:157] Top shape: 1 4096 (4096)
I0104 23:58:53.015872  2808 net.cpp:165] Memory required for data: 326416232
I0104 23:58:53.015883  2808 layer_factory.hpp:77] Creating layer relu7
I0104 23:58:53.015895  2808 net.cpp:100] Creating Layer relu7
I0104 23:58:53.015902  2808 net.cpp:434] relu7 <- fc7
I0104 23:58:53.015911  2808 net.cpp:395] relu7 -> fc7 (in-place)
I0104 23:58:53.016077  2808 net.cpp:150] Setting up relu7
I0104 23:58:53.016082  2808 net.cpp:157] Top shape: 1 4096 (4096)
I0104 23:58:53.016084  2808 net.cpp:165] Memory required for data: 326432616
I0104 23:58:53.016088  2808 layer_factory.hpp:77] Creating layer drop7
I0104 23:58:53.016094  2808 net.cpp:100] Creating Layer drop7
I0104 23:58:53.016098  2808 net.cpp:434] drop7 <- fc7
I0104 23:58:53.016101  2808 net.cpp:395] drop7 -> fc7 (in-place)
I0104 23:58:53.016124  2808 net.cpp:150] Setting up drop7
I0104 23:58:53.016129  2808 net.cpp:157] Top shape: 1 4096 (4096)
I0104 23:58:53.016130  2808 net.cpp:165] Memory required for data: 326449000
I0104 23:58:53.016134  2808 layer_factory.hpp:77] Creating layer fc7_drop7_0_split
I0104 23:58:53.016139  2808 net.cpp:100] Creating Layer fc7_drop7_0_split
I0104 23:58:53.016141  2808 net.cpp:434] fc7_drop7_0_split <- fc7
I0104 23:58:53.016146  2808 net.cpp:408] fc7_drop7_0_split -> fc7_drop7_0_split_0
I0104 23:58:53.016154  2808 net.cpp:408] fc7_drop7_0_split -> fc7_drop7_0_split_1
I0104 23:58:53.016180  2808 net.cpp:150] Setting up fc7_drop7_0_split
I0104 23:58:53.016185  2808 net.cpp:157] Top shape: 1 4096 (4096)
I0104 23:58:53.016187  2808 net.cpp:157] Top shape: 1 4096 (4096)
I0104 23:58:53.016191  2808 net.cpp:165] Memory required for data: 326481768
I0104 23:58:53.016193  2808 layer_factory.hpp:77] Creating layer cls_score
I0104 23:58:53.016201  2808 net.cpp:100] Creating Layer cls_score
I0104 23:58:53.016203  2808 net.cpp:434] cls_score <- fc7_drop7_0_split_0
I0104 23:58:53.016211  2808 net.cpp:408] cls_score -> cls_score
I0104 23:58:53.016331  2808 net.cpp:150] Setting up cls_score
I0104 23:58:53.016335  2808 net.cpp:157] Top shape: 1 2 (2)
I0104 23:58:53.016338  2808 net.cpp:165] Memory required for data: 326481776
I0104 23:58:53.016345  2808 layer_factory.hpp:77] Creating layer bbox_pred
I0104 23:58:53.016350  2808 net.cpp:100] Creating Layer bbox_pred
I0104 23:58:53.016352  2808 net.cpp:434] bbox_pred <- fc7_drop7_0_split_1
I0104 23:58:53.016358  2808 net.cpp:408] bbox_pred -> bbox_pred
I0104 23:58:53.016659  2808 net.cpp:150] Setting up bbox_pred
I0104 23:58:53.016666  2808 net.cpp:157] Top shape: 1 8 (8)
I0104 23:58:53.016669  2808 net.cpp:165] Memory required for data: 326481808
I0104 23:58:53.016674  2808 layer_factory.hpp:77] Creating layer loss_cls
I0104 23:58:53.016679  2808 net.cpp:100] Creating Layer loss_cls
I0104 23:58:53.016681  2808 net.cpp:434] loss_cls <- cls_score
I0104 23:58:53.016685  2808 net.cpp:434] loss_cls <- labels
I0104 23:58:53.016688  2808 net.cpp:408] loss_cls -> cls_loss
…
I0105 02:51:36.217717  6399 upgrade_proto.cpp:70] Successfully upgraded file specified using deprecated input fields.
W0105 02:51:36.217720  6399 upgrade_proto.cpp:72] Note that future Caffe releases will only support input layers and not input fields.
I0105 02:51:36.217839  6399 net.cpp:58] Initializing net from parameters: 
name: "ZF"
state {
  phase: TEST
  level: 0
}
layer {
  name: "input"
  type: "Input"
  top: "data"
  top: "im_info"
  input_param {
    shape {
      dim: 1
      dim: 3
      dim: 224
      dim: 224
    }
    shape {
      dim: 1
      dim: 3
    }
  }
}
layer {
  name: "conv1"
  type: "Convolution"
  bottom: "data"
  top: "conv1"
  convolution_param {
    num_output: 96
    pad: 3
    kernel_size: 7
    stride: 2
  }
}
layer {
  name: "relu1"
  type: "ReLU"
  bottom: "conv1"
  top: "conv1"
}
layer {
  name: "norm1"
  type: "LRN"
  bottom: "conv1"
  top: "norm1"
  lrn_param {
    local_size: 3
    alpha: 5e-05
    beta: 0.75
    norm_region: WITHIN_CHANNEL
    engine: CAFFE
  }
}
layer {
  name: "pool1"
  type: "Pooling"
  bottom: "norm1"
  top: "pool1"
  pooling_param {
    pool: MAX
    kernel_size: 3
    stride: 2
    pad: 1
  }
}
layer {
  name: "conv2"
  type: "Convolution"
  bottom: "pool1"
  top: "conv2"
  convolution_param {
    num_output: 256
    pad: 2
    kernel_size: 5
    stride: 2
  }
}
layer {
  name: "relu2"
  type: "ReLU"
  bottom: "conv2"
  top: "conv2"
}
layer {
  name: "norm2"
  type: "LRN"
  bottom: "conv2"
  top: "norm2"
  lrn_param {
    local_size: 3
    alpha: 5e-05
    beta: 0.75
    norm_region: WITHIN_CHANNEL
    engine: CAFFE
  }
}
layer {
  name: "pool2"
  type: "Pooling"
  bottom: "norm2"
  top: "pool2"
  pooling_param {
    pool: MAX
    kernel_size: 3
    stride: 2
    pad: 1
  }
}
layer {
  name: "conv3"
  type: "Convolution"
  bottom: "pool2"
  top: "conv3"
  convolution_param {
    num_output: 384
    pad: 1
    kernel_size: 3
    stride: 1
  }
}
layer {
  name: "relu3"
  type: "ReLU"
  bottom: "conv3"
  top: "conv3"
}
layer {
  name: "conv4"
  type: "Convolution"
  bottom: "conv3"
  top: "conv4"
  convolution_param {
    num_output: 384
    pad: 1
    kernel_size: 3
    stride: 1
  }
}
layer {
  name: "relu4"
  type: "ReLU"
  bottom: "conv4"
  top: "conv4"
}
layer {
  name: "conv5"
  type: "Convolution"
  bottom: "conv4"
  top: "conv5"
  convolution_param {
    num_output: 256
    pad: 1
    kernel_size: 3
    stride: 1
  }
}
layer {
  name: "relu5"
  type: "ReLU"
  bottom: "conv5"
  top: "conv5"
}
layer {
  name: "rpn_conv/3x3"
  type: "Convolution"
  bottom: "conv5"
  top: "rpn/output"
  convolution_param {
    num_output: 256
    pad: 1
    kernel_size: 3
    stride: 1
    weight_filler {
      type: "gaussian"
      std: 0.01
    }
    bias_filler {
      type: "constant"
      value: 0
    }
  }
}
layer {
  name: "rpn_relu/3x3"
  type: "ReLU"
  bottom: "rpn/output"
  top: "rpn/output"
}
layer {
  name: "rpn_cls_score"
  type: "Convolution"
  bottom: "rpn/output"
  top: "rpn_cls_score"
  convolution_param {
    num_output: 18
    pad: 0
    kernel_size: 1
    stride: 1
    weight_filler {
      type: "gaussian"
      std: 0.01
    }
    bias_filler {
      type: "constant"
      value: 0
    }
  }
}
layer {
  name: "rpn_bbox_pred"
  type: "Convolution"
  bottom: "rpn/output"
  top: "rpn_bbox_pred"
  convolution_param {
    num_output: 36
    pad: 0
    kernel_size: 1
    stride: 1
    weight_filler {
      type: "gaussian"
      std: 0.01
    }
    bias_filler {
      type: "constant"
      value: 0
    }
  }
}
layer {
  name: "rpn_cls_score_reshape"
  type: "Reshape"
  bottom: "rpn_cls_score"
  top: "rpn_cls_score_reshape"
  reshape_param {
    shape {
      dim: 0
      dim: 2
      dim: -1
      dim: 0
    }
  }
}
layer {
  name: "rpn_cls_prob"
  type: "Softmax"
  bottom: "rpn_cls_score_reshape"
  top: "rpn_cls_prob"
}
layer {
  name: "rpn_cls_prob_reshape"
  type: "Reshape"
  bottom: "rpn_cls_prob"
  top: "rpn_cls_prob_reshape"
  reshape_param {
    shape {
      dim: 0
      dim: 18
      dim: -1
      dim: 0
    }
  }
}
layer {
  name: "proposal"
  type: "Python"
  bottom: "rpn_cls_prob_reshape"
  bottom: "rpn_bbox_pred"
  bottom: "im_info"
  top: "rois"
  python_param {
    module: "rpn.proposal_layer"
    layer: "ProposalLayer"
    param_str: "\'feat_stride\': 16"
  }
}
layer {
  name: "roi_pool_conv5"
  type: "ROIPooling"
  bottom: "conv5"
  bottom: "rois"
  top: "roi_pool_conv5"
  roi_pooling_param {
    pooled_h: 6
    pooled_w: 6
    spatial_scale: 0.0625
  }
}
layer {
  name: "fc6"
  type: "InnerProduct"
  bottom: "roi_pool_conv5"
  top: "fc6"
  inner_product_param {
    num_output: 4096
  }
}
layer {
  name: "relu6"
  type: "ReLU"
  bottom: "fc6"
  top: "fc6"
}
layer {
  name: "drop6"
  type: "Dropout"
  bottom: "fc6"
  top: "fc6"
  dropout_param {
    dropout_ratio: 0.5
    scale_train: false
  }
}
layer {
  name: "fc7"
  type: "InnerProduct"
  bottom: "fc6"
  top: "fc7"
  inner_product_param {
    num_output: 4096
  }
}
layer {
  name: "relu7"
  type: "ReLU"
  bottom: "fc7"
  top: "fc7"
}
layer {
  name: "drop7"
  type: "Dropout"
  bottom: "fc7"
  top: "fc7"
  dropout_param {
    dropout_ratio: 0.5
    scale_train: false
  }
}
layer {
  name: "cls_score"
  type: "InnerProduct"
  bottom: "fc7"
  top: "cls_score"
  inner_product_param {
    num_output: 2
  }
}
layer {
  name: "bbox_pred"
  type: "InnerProduct"
  bottom: "fc7"
  top: "bbox_pred"
  inner_product_param {
    num_output: 8
  }
}
layer {
  name: "cls_prob"
  type: "Softmax"
  bottom: "cls_score"
  top: "cls_prob"
  loss_param {
    ignore_label: -1
    normalize: true
  }
}
I0105 02:51:36.217912  6399 layer_factory.hpp:77] Creating layer input
I0105 02:51:36.217918  6399 net.cpp:100] Creating Layer input
I0105 02:51:36.217921  6399 net.cpp:408] input -> data
I0105 02:51:36.217927  6399 net.cpp:408] input -> im_info
I0105 02:51:36.227670  6399 net.cpp:150] Setting up input
I0105 02:51:36.227687  6399 net.cpp:157] Top shape: 1 3 224 224 (150528)
I0105 02:51:36.227690  6399 net.cpp:157] Top shape: 1 3 (3)
I0105 02:51:36.227691  6399 net.cpp:165] Memory required for data: 602124
I0105 02:51:36.227696  6399 layer_factory.hpp:77] Creating layer conv1
I0105 02:51:36.227705  6399 net.cpp:100] Creating Layer conv1
I0105 02:51:36.227707  6399 net.cpp:434] conv1 <- data
I0105 02:51:36.227711  6399 net.cpp:408] conv1 -> conv1
I0105 02:51:36.357952  6399 net.cpp:150] Setting up conv1
I0105 02:51:36.357990  6399 net.cpp:157] Top shape: 1 96 112 112 (1204224)
I0105 02:51:36.357993  6399 net.cpp:165] Memory required for data: 5419020
I0105 02:51:36.358007  6399 layer_factory.hpp:77] Creating layer relu1
I0105 02:51:36.358019  6399 net.cpp:100] Creating Layer relu1
I0105 02:51:36.358022  6399 net.cpp:434] relu1 <- conv1
I0105 02:51:36.358026  6399 net.cpp:395] relu1 -> conv1 (in-place)
I0105 02:51:36.358144  6399 net.cpp:150] Setting up relu1
I0105 02:51:36.358149  6399 net.cpp:157] Top shape: 1 96 112 112 (1204224)
I0105 02:51:36.358150  6399 net.cpp:165] Memory required for data: 10235916
I0105 02:51:36.358152  6399 layer_factory.hpp:77] Creating layer norm1
I0105 02:51:36.358156  6399 net.cpp:100] Creating Layer norm1
I0105 02:51:36.358157  6399 net.cpp:434] norm1 <- conv1
I0105 02:51:36.358160  6399 net.cpp:408] norm1 -> norm1
I0105 02:51:36.358234  6399 net.cpp:150] Setting up norm1
I0105 02:51:36.358238  6399 net.cpp:157] Top shape: 1 96 112 112 (1204224)
I0105 02:51:36.358253  6399 net.cpp:165] Memory required for data: 15052812
I0105 02:51:36.358254  6399 layer_factory.hpp:77] Creating layer pool1
I0105 02:51:36.358258  6399 net.cpp:100] Creating Layer pool1
I0105 02:51:36.358259  6399 net.cpp:434] pool1 <- norm1
I0105 02:51:36.358275  6399 net.cpp:408] pool1 -> pool1
I0105 02:51:36.358294  6399 net.cpp:150] Setting up pool1
I0105 02:51:36.358299  6399 net.cpp:157] Top shape: 1 96 57 57 (311904)
I0105 02:51:36.358300  6399 net.cpp:165] Memory required for data: 16300428
I0105 02:51:36.358301  6399 layer_factory.hpp:77] Creating layer conv2
I0105 02:51:36.358306  6399 net.cpp:100] Creating Layer conv2
I0105 02:51:36.358309  6399 net.cpp:434] conv2 <- pool1
I0105 02:51:36.358310  6399 net.cpp:408] conv2 -> conv2
I0105 02:51:36.360047  6399 net.cpp:150] Setting up conv2
I0105 02:51:36.360056  6399 net.cpp:157] Top shape: 1 256 29 29 (215296)
I0105 02:51:36.360074  6399 net.cpp:165] Memory required for data: 17161612
I0105 02:51:36.360080  6399 layer_factory.hpp:77] Creating layer relu2
I0105 02:51:36.360083  6399 net.cpp:100] Creating Layer relu2
I0105 02:51:36.360085  6399 net.cpp:434] relu2 <- conv2
I0105 02:51:36.360090  6399 net.cpp:395] relu2 -> conv2 (in-place)
I0105 02:51:36.360209  6399 net.cpp:150] Setting up relu2
I0105 02:51:36.360213  6399 net.cpp:157] Top shape: 1 256 29 29 (215296)
I0105 02:51:36.360214  6399 net.cpp:165] Memory required for data: 18022796
I0105 02:51:36.360216  6399 layer_factory.hpp:77] Creating layer norm2
I0105 02:51:36.360234  6399 net.cpp:100] Creating Layer norm2
I0105 02:51:36.360236  6399 net.cpp:434] norm2 <- conv2
I0105 02:51:36.360239  6399 net.cpp:408] norm2 -> norm2
I0105 02:51:36.360307  6399 net.cpp:150] Setting up norm2
I0105 02:51:36.360311  6399 net.cpp:157] Top shape: 1 256 29 29 (215296)
I0105 02:51:36.360312  6399 net.cpp:165] Memory required for data: 18883980
I0105 02:51:36.360314  6399 layer_factory.hpp:77] Creating layer pool2
I0105 02:51:36.360330  6399 net.cpp:100] Creating Layer pool2
I0105 02:51:36.360332  6399 net.cpp:434] pool2 <- norm2
I0105 02:51:36.360334  6399 net.cpp:408] pool2 -> pool2
I0105 02:51:36.360368  6399 net.cpp:150] Setting up pool2
I0105 02:51:36.360370  6399 net.cpp:157] Top shape: 1 256 15 15 (57600)
I0105 02:51:36.360373  6399 net.cpp:165] Memory required for data: 19114380
I0105 02:51:36.360373  6399 layer_factory.hpp:77] Creating layer conv3
I0105 02:51:36.360378  6399 net.cpp:100] Creating Layer conv3
I0105 02:51:36.360379  6399 net.cpp:434] conv3 <- pool2
I0105 02:51:36.360381  6399 net.cpp:408] conv3 -> conv3
I0105 02:51:36.362017  6399 net.cpp:150] Setting up conv3
I0105 02:51:36.362025  6399 net.cpp:157] Top shape: 1 384 15 15 (86400)
I0105 02:51:36.362027  6399 net.cpp:165] Memory required for data: 19459980
I0105 02:51:36.362048  6399 layer_factory.hpp:77] Creating layer relu3
I0105 02:51:36.362051  6399 net.cpp:100] Creating Layer relu3
I0105 02:51:36.362053  6399 net.cpp:434] relu3 <- conv3
I0105 02:51:36.362056  6399 net.cpp:395] relu3 -> conv3 (in-place)
I0105 02:51:36.362296  6399 net.cpp:150] Setting up relu3
I0105 02:51:36.362303  6399 net.cpp:157] Top shape: 1 384 15 15 (86400)
I0105 02:51:36.362319  6399 net.cpp:165] Memory required for data: 19805580
I0105 02:51:36.362321  6399 layer_factory.hpp:77] Creating layer conv4
I0105 02:51:36.362326  6399 net.cpp:100] Creating Layer conv4
I0105 02:51:36.362327  6399 net.cpp:434] conv4 <- conv3
I0105 02:51:36.362330  6399 net.cpp:408] conv4 -> conv4
I0105 02:51:36.364500  6399 net.cpp:150] Setting up conv4
I0105 02:51:36.364531  6399 net.cpp:157] Top shape: 1 384 15 15 (86400)
I0105 02:51:36.364532  6399 net.cpp:165] Memory required for data: 20151180
I0105 02:51:36.364539  6399 layer_factory.hpp:77] Creating layer relu4
I0105 02:51:36.364547  6399 net.cpp:100] Creating Layer relu4
I0105 02:51:36.364549  6399 net.cpp:434] relu4 <- conv4
I0105 02:51:36.364553  6399 net.cpp:395] relu4 -> conv4 (in-place)
I0105 02:51:36.364668  6399 net.cpp:150] Setting up relu4
I0105 02:51:36.364673  6399 net.cpp:157] Top shape: 1 384 15 15 (86400)
I0105 02:51:36.364675  6399 net.cpp:165] Memory required for data: 20496780
I0105 02:51:36.364676  6399 layer_factory.hpp:77] Creating layer conv5
I0105 02:51:36.364694  6399 net.cpp:100] Creating Layer conv5
I0105 02:51:36.364696  6399 net.cpp:434] conv5 <- conv4
I0105 02:51:36.364698  6399 net.cpp:408] conv5 -> conv5
I0105 02:51:36.366405  6399 net.cpp:150] Setting up conv5
I0105 02:51:36.366415  6399 net.cpp:157] Top shape: 1 256 15 15 (57600)
I0105 02:51:36.366431  6399 net.cpp:165] Memory required for data: 20727180
I0105 02:51:36.366439  6399 layer_factory.hpp:77] Creating layer relu5
I0105 02:51:36.366443  6399 net.cpp:100] Creating Layer relu5
I0105 02:51:36.366446  6399 net.cpp:434] relu5 <- conv5
I0105 02:51:36.366449  6399 net.cpp:395] relu5 -> conv5 (in-place)
I0105 02:51:36.366562  6399 net.cpp:150] Setting up relu5
I0105 02:51:36.366567  6399 net.cpp:157] Top shape: 1 256 15 15 (57600)
I0105 02:51:36.366569  6399 net.cpp:165] Memory required for data: 20957580
I0105 02:51:36.366570  6399 layer_factory.hpp:77] Creating layer conv5_relu5_0_split
I0105 02:51:36.366588  6399 net.cpp:100] Creating Layer conv5_relu5_0_split
I0105 02:51:36.366590  6399 net.cpp:434] conv5_relu5_0_split <- conv5
I0105 02:51:36.366593  6399 net.cpp:408] conv5_relu5_0_split -> conv5_relu5_0_split_0
I0105 02:51:36.366597  6399 net.cpp:408] conv5_relu5_0_split -> conv5_relu5_0_split_1
I0105 02:51:36.366621  6399 net.cpp:150] Setting up conv5_relu5_0_split
I0105 02:51:36.366624  6399 net.cpp:157] Top shape: 1 256 15 15 (57600)
I0105 02:51:36.366627  6399 net.cpp:157] Top shape: 1 256 15 15 (57600)
I0105 02:51:36.366628  6399 net.cpp:165] Memory required for data: 21418380
I0105 02:51:36.366631  6399 layer_factory.hpp:77] Creating layer rpn_conv/3x3
I0105 02:51:36.366637  6399 net.cpp:100] Creating Layer rpn_conv/3x3
I0105 02:51:36.366639  6399 net.cpp:434] rpn_conv/3x3 <- conv5_relu5_0_split_0
I0105 02:51:36.366642  6399 net.cpp:408] rpn_conv/3x3 -> rpn/output
I0105 02:51:36.372470  6399 net.cpp:150] Setting up rpn_conv/3x3
I0105 02:51:36.372488  6399 net.cpp:157] Top shape: 1 256 15 15 (57600)
I0105 02:51:36.372490  6399 net.cpp:165] Memory required for data: 21648780
I0105 02:51:36.372498  6399 layer_factory.hpp:77] Creating layer rpn_relu/3x3
I0105 02:51:36.372504  6399 net.cpp:100] Creating Layer rpn_relu/3x3
I0105 02:51:36.372506  6399 net.cpp:434] rpn_relu/3x3 <- rpn/output
I0105 02:51:36.372510  6399 net.cpp:395] rpn_relu/3x3 -> rpn/output (in-place)
I0105 02:51:36.372620  6399 net.cpp:150] Setting up rpn_relu/3x3
I0105 02:51:36.372625  6399 net.cpp:157] Top shape: 1 256 15 15 (57600)
I0105 02:51:36.372627  6399 net.cpp:165] Memory required for data: 21879180
I0105 02:51:36.372628  6399 layer_factory.hpp:77] Creating layer rpn/output_rpn_relu/3x3_0_split
I0105 02:51:36.372632  6399 net.cpp:100] Creating Layer rpn/output_rpn_relu/3x3_0_split
I0105 02:51:36.372634  6399 net.cpp:434] rpn/output_rpn_relu/3x3_0_split <- rpn/output
I0105 02:51:36.372637  6399 net.cpp:408] rpn/output_rpn_relu/3x3_0_split -> rpn/output_rpn_relu/3x3_0_split_0
I0105 02:51:36.372640  6399 net.cpp:408] rpn/output_rpn_relu/3x3_0_split -> rpn/output_rpn_relu/3x3_0_split_1
I0105 02:51:36.372668  6399 net.cpp:150] Setting up rpn/output_rpn_relu/3x3_0_split
I0105 02:51:36.372670  6399 net.cpp:157] Top shape: 1 256 15 15 (57600)
I0105 02:51:36.372673  6399 net.cpp:157] Top shape: 1 256 15 15 (57600)
I0105 02:51:36.372674  6399 net.cpp:165] Memory required for data: 22339980
I0105 02:51:36.372675  6399 layer_factory.hpp:77] Creating layer rpn_cls_score
I0105 02:51:36.372683  6399 net.cpp:100] Creating Layer rpn_cls_score
I0105 02:51:36.372684  6399 net.cpp:434] rpn_cls_score <- rpn/output_rpn_relu/3x3_0_split_0
I0105 02:51:36.372686  6399 net.cpp:408] rpn_cls_score -> rpn_cls_score
I0105 02:51:36.373423  6399 net.cpp:150] Setting up rpn_cls_score
I0105 02:51:36.373430  6399 net.cpp:157] Top shape: 1 18 15 15 (4050)
I0105 02:51:36.373432  6399 net.cpp:165] Memory required for data: 22356180
I0105 02:51:36.373450  6399 layer_factory.hpp:77] Creating layer rpn_bbox_pred
I0105 02:51:36.373456  6399 net.cpp:100] Creating Layer rpn_bbox_pred
I0105 02:51:36.373458  6399 net.cpp:434] rpn_bbox_pred <- rpn/output_rpn_relu/3x3_0_split_1
I0105 02:51:36.373461  6399 net.cpp:408] rpn_bbox_pred -> rpn_bbox_pred
I0105 02:51:36.374112  6399 net.cpp:150] Setting up rpn_bbox_pred
I0105 02:51:36.374119  6399 net.cpp:157] Top shape: 1 36 15 15 (8100)
I0105 02:51:36.374121  6399 net.cpp:165] Memory required for data: 22388580
I0105 02:51:36.374125  6399 layer_factory.hpp:77] Creating layer rpn_cls_score_reshape
I0105 02:51:36.374145  6399 net.cpp:100] Creating Layer rpn_cls_score_reshape
I0105 02:51:36.374146  6399 net.cpp:434] rpn_cls_score_reshape <- rpn_cls_score
I0105 02:51:36.374150  6399 net.cpp:408] rpn_cls_score_reshape -> rpn_cls_score_reshape
I0105 02:51:36.374167  6399 net.cpp:150] Setting up rpn_cls_score_reshape
I0105 02:51:36.374171  6399 net.cpp:157] Top shape: 1 2 135 15 (4050)
I0105 02:51:36.374173  6399 net.cpp:165] Memory required for data: 22404780
I0105 02:51:36.374174  6399 layer_factory.hpp:77] Creating layer rpn_cls_prob
I0105 02:51:36.374177  6399 net.cpp:100] Creating Layer rpn_cls_prob
I0105 02:51:36.374178  6399 net.cpp:434] rpn_cls_prob <- rpn_cls_score_reshape
I0105 02:51:36.374181  6399 net.cpp:408] rpn_cls_prob -> rpn_cls_prob
I0105 02:51:36.374336  6399 net.cpp:150] Setting up rpn_cls_prob
I0105 02:51:36.374341  6399 net.cpp:157] Top shape: 1 2 135 15 (4050)
I0105 02:51:36.374357  6399 net.cpp:165] Memory required for data: 22420980
I0105 02:51:36.374359  6399 layer_factory.hpp:77] Creating layer rpn_cls_prob_reshape
I0105 02:51:36.374362  6399 net.cpp:100] Creating Layer rpn_cls_prob_reshape
I0105 02:51:36.374364  6399 net.cpp:434] rpn_cls_prob_reshape <- rpn_cls_prob
I0105 02:51:36.374367  6399 net.cpp:408] rpn_cls_prob_reshape -> rpn_cls_prob_reshape
I0105 02:51:36.374382  6399 net.cpp:150] Setting up rpn_cls_prob_reshape
I0105 02:51:36.374385  6399 net.cpp:157] Top shape: 1 18 15 15 (4050)
I0105 02:51:36.374387  6399 net.cpp:165] Memory required for data: 22437180
I0105 02:51:36.374388  6399 layer_factory.hpp:77] Creating layer proposal
I0105 02:51:36.374675  6399 net.cpp:100] Creating Layer proposal
I0105 02:51:36.374680  6399 net.cpp:434] proposal <- rpn_cls_prob_reshape
I0105 02:51:36.374697  6399 net.cpp:434] proposal <- rpn_bbox_pred
I0105 02:51:36.374699  6399 net.cpp:434] proposal <- im_info
I0105 02:51:36.374702  6399 net.cpp:408] proposal -> rois
I0105 02:51:36.375147  6399 net.cpp:150] Setting up proposal
I0105 02:51:36.375155  6399 net.cpp:157] Top shape: 1 5 (5)
I0105 02:51:36.375171  6399 net.cpp:165] Memory required for data: 22437200
I0105 02:51:36.375174  6399 layer_factory.hpp:77] Creating layer roi_pool_conv5
I0105 02:51:36.375177  6399 net.cpp:100] Creating Layer roi_pool_conv5
I0105 02:51:36.375180  6399 net.cpp:434] roi_pool_conv5 <- conv5_relu5_0_split_1
I0105 02:51:36.375195  6399 net.cpp:434] roi_pool_conv5 <- rois
I0105 02:51:36.375197  6399 net.cpp:408] roi_pool_conv5 -> roi_pool_conv5
I0105 02:51:36.375203  6399 roi_pooling_layer.cpp:30] Spatial scale: 0.0625
I0105 02:51:36.375236  6399 net.cpp:150] Setting up roi_pool_conv5
I0105 02:51:36.375238  6399 net.cpp:157] Top shape: 1 256 6 6 (9216)
I0105 02:51:36.375241  6399 net.cpp:165] Memory required for data: 22474064
I0105 02:51:36.375242  6399 layer_factory.hpp:77] Creating layer fc6
I0105 02:51:36.375246  6399 net.cpp:100] Creating Layer fc6
I0105 02:51:36.375247  6399 net.cpp:434] fc6 <- roi_pool_conv5
I0105 02:51:36.375249  6399 net.cpp:408] fc6 -> fc6
I0105 02:51:36.425933  6399 net.cpp:150] Setting up fc6
I0105 02:51:36.425966  6399 net.cpp:157] Top shape: 1 4096 (4096)
I0105 02:51:36.425968  6399 net.cpp:165] Memory required for data: 22490448
I0105 02:51:36.425983  6399 layer_factory.hpp:77] Creating layer relu6
I0105 02:51:36.425994  6399 net.cpp:100] Creating Layer relu6
I0105 02:51:36.425997  6399 net.cpp:434] relu6 <- fc6
I0105 02:51:36.426002  6399 net.cpp:395] relu6 -> fc6 (in-place)
I0105 02:51:36.426169  6399 net.cpp:150] Setting up relu6
I0105 02:51:36.426187  6399 net.cpp:157] Top shape: 1 4096 (4096)
I0105 02:51:36.426187  6399 net.cpp:165] Memory required for data: 22506832
I0105 02:51:36.426189  6399 layer_factory.hpp:77] Creating layer drop6
I0105 02:51:36.426208  6399 net.cpp:100] Creating Layer drop6
I0105 02:51:36.426210  6399 net.cpp:434] drop6 <- fc6
I0105 02:51:36.426213  6399 net.cpp:395] drop6 -> fc6 (in-place)
I0105 02:51:36.426229  6399 net.cpp:150] Setting up drop6
I0105 02:51:36.426231  6399 net.cpp:157] Top shape: 1 4096 (4096)
I0105 02:51:36.426232  6399 net.cpp:165] Memory required for data: 22523216
I0105 02:51:36.426234  6399 layer_factory.hpp:77] Creating layer fc7
I0105 02:51:36.426239  6399 net.cpp:100] Creating Layer fc7
I0105 02:51:36.426239  6399 net.cpp:434] fc7 <- fc6
I0105 02:51:36.426242  6399 net.cpp:408] fc7 -> fc7
I0105 02:51:36.449574  6399 net.cpp:150] Setting up fc7
I0105 02:51:36.449601  6399 net.cpp:157] Top shape: 1 4096 (4096)
I0105 02:51:36.449604  6399 net.cpp:165] Memory required for data: 22539600
I0105 02:51:36.449611  6399 layer_factory.hpp:77] Creating layer relu7
I0105 02:51:36.449616  6399 net.cpp:100] Creating Layer relu7
I0105 02:51:36.449620  6399 net.cpp:434] relu7 <- fc7
I0105 02:51:36.449623  6399 net.cpp:395] relu7 -> fc7 (in-place)
I0105 02:51:36.449993  6399 net.cpp:150] Setting up relu7
I0105 02:51:36.450000  6399 net.cpp:157] Top shape: 1 4096 (4096)
I0105 02:51:36.450016  6399 net.cpp:165] Memory required for data: 22555984
I0105 02:51:36.450018  6399 layer_factory.hpp:77] Creating layer drop7
I0105 02:51:36.450024  6399 net.cpp:100] Creating Layer drop7
I0105 02:51:36.450026  6399 net.cpp:434] drop7 <- fc7
I0105 02:51:36.450029  6399 net.cpp:395] drop7 -> fc7 (in-place)
I0105 02:51:36.450048  6399 net.cpp:150] Setting up drop7
I0105 02:51:36.450052  6399 net.cpp:157] Top shape: 1 4096 (4096)
I0105 02:51:36.450053  6399 net.cpp:165] Memory required for data: 22572368
I0105 02:51:36.450054  6399 layer_factory.hpp:77] Creating layer fc7_drop7_0_split
I0105 02:51:36.450063  6399 net.cpp:100] Creating Layer fc7_drop7_0_split
I0105 02:51:36.450065  6399 net.cpp:434] fc7_drop7_0_split <- fc7
I0105 02:51:36.450068  6399 net.cpp:408] fc7_drop7_0_split -> fc7_drop7_0_split_0
I0105 02:51:36.450073  6399 net.cpp:408] fc7_drop7_0_split -> fc7_drop7_0_split_1
I0105 02:51:36.450096  6399 net.cpp:150] Setting up fc7_drop7_0_split
I0105 02:51:36.450099  6399 net.cpp:157] Top shape: 1 4096 (4096)
I0105 02:51:36.450101  6399 net.cpp:157] Top shape: 1 4096 (4096)
I0105 02:51:36.450103  6399 net.cpp:165] Memory required for data: 22605136
I0105 02:51:36.450104  6399 layer_factory.hpp:77] Creating layer cls_score
I0105 02:51:36.450108  6399 net.cpp:100] Creating Layer cls_score
I0105 02:51:36.450109  6399 net.cpp:434] cls_score <- fc7_drop7_0_split_0
I0105 02:51:36.450112  6399 net.cpp:408] cls_score -> cls_score
I0105 02:51:36.450175  6399 net.cpp:150] Setting up cls_score
I0105 02:51:36.450177  6399 net.cpp:157] Top shape: 1 2 (2)
I0105 02:51:36.450179  6399 net.cpp:165] Memory required for data: 22605144
I0105 02:51:36.450182  6399 layer_factory.hpp:77] Creating layer bbox_pred
I0105 02:51:36.450186  6399 net.cpp:100] Creating Layer bbox_pred
I0105 02:51:36.450187  6399 net.cpp:434] bbox_pred <- fc7_drop7_0_split_1
I0105 02:51:36.450191  6399 net.cpp:408] bbox_pred -> bbox_pred
I0105 02:51:36.450754  6399 net.cpp:150] Setting up bbox_pred
I0105 02:51:36.450760  6399 net.cpp:157] Top shape: 1 8 (8)
I0105 02:51:36.450762  6399 net.cpp:165] Memory required for data: 22605176
I0105 02:51:36.450780  6399 layer_factory.hpp:77] Creating layer cls_prob
I0105 02:51:36.450785  6399 net.cpp:100] Creating Layer cls_prob
I0105 02:51:36.450788  6399 net.cpp:434] cls_prob <- cls_score
I0105 02:51:36.450789  6399 net.cpp:408] cls_prob -> cls_prob
I0105 02:51:36.450942  6399 net.cpp:150] Setting up cls_prob
I0105 02:51:36.450947  6399 net.cpp:157] Top shape: 1 2 (2)
I0105 02:51:36.450947  6399 net.cpp:165] Memory required for data: 22605184
I0105 02:51:36.450964  6399 net.cpp:228] cls_prob does not need backward computation.
I0105 02:51:36.450965  6399 net.cpp:228] bbox_pred does not need backward computation.
I0105 02:51:36.450968  6399 net.cpp:228] cls_score does not need backward computation.
I0105 02:51:36.450969  6399 net.cpp:228] fc7_drop7_0_split does not need backward computation.
…
