…
snapshot_prefix: "vgg16_faster_rcnn"
average_loss: 100
iter_size: 2
I0101 02:34:43.114665 28908 solver.cpp:81] Creating training net from train_net file: models/pascal_voc/VGG16/faster_rcnn_end2end/train.prototxt
I0101 02:34:43.115149 28908 net.cpp:58] Initializing net from parameters: 
name: "VGG_ILSVRC_16_layers"
state {
  phase: TRAIN
}
layer {
  name: "input-data"
  type: "Python"
  top: "data"
  top: "im_info"
  top: "gt_boxes"
  python_param {
    module: "roi_data_layer.layer"
    layer: "RoIDataLayer"
    param_str: "\'num_classes\': 2"
  }
}
layer {
  name: "conv1_1"
  type: "Convolution"
  bottom: "data"
  top: "conv1_1"
  param {
    lr_mult: 0
    decay_mult: 0
  }
  param {
    lr_mult: 0
    decay_mult: 0
  }
  convolution_param {
    num_output: 64
    pad: 1
    kernel_size: 3
  }
}
layer {
  name: "relu1_1"
  type: "ReLU"
  bottom: "conv1_1"
  top: "conv1_1"
}
layer {
  name: "conv1_2"
  type: "Convolution"
  bottom: "conv1_1"
  top: "conv1_2"
  param {
    lr_mult: 0
    decay_mult: 0
  }
  param {
    lr_mult: 0
    decay_mult: 0
  }
  convolution_param {
    num_output: 64
    pad: 1
    kernel_size: 3
  }
}
layer {
  name: "relu1_2"
  type: "ReLU"
  bottom: "conv1_2"
  top: "conv1_2"
}
layer {
  name: "pool1"
  type: "Pooling"
  bottom: "conv1_2"
  top: "pool1"
  pooling_param {
    pool: MAX
    kernel_size: 2
    stride: 2
  }
}
layer {
  name: "conv2_1"
  type: "Convolution"
  bottom: "pool1"
  top: "conv2_1"
  param {
    lr_mult: 0
    decay_mult: 0
  }
  param {
    lr_mult: 0
    decay_mult: 0
  }
  convolution_param {
    num_output: 128
    pad: 1
    kernel_size: 3
  }
}
layer {
  name: "relu2_1"
  type: "ReLU"
  bottom: "conv2_1"
  top: "conv2_1"
}
layer {
  name: "conv2_2"
  type: "Convolution"
  bottom: "conv2_1"
  top: "conv2_2"
  param {
    lr_mult: 0
    decay_mult: 0
  }
  param {
    lr_mult: 0
    decay_mult: 0
  }
  convolution_param {
    num_output: 128
    pad: 1
    kernel_size: 3
  }
}
layer {
  name: "relu2_2"
  type: "ReLU"
  bottom: "conv2_2"
  top: "conv2_2"
}
layer {
  name: "pool2"
  type: "Pooling"
  bottom: "conv2_2"
  top: "pool2"
  pooling_param {
    pool: MAX
    kernel_size: 2
    stride: 2
  }
}
layer {
  name: "conv3_1"
  type: "Convolution"
  bottom: "pool2"
  top: "conv3_1"
  param {
    lr_mult: 1
  }
  param {
    lr_mult: 2
  }
  convolution_param {
    num_output: 256
    pad: 1
    kernel_size: 3
  }
}
layer {
  name: "relu3_1"
  type: "ReLU"
  bottom: "conv3_1"
  top: "conv3_1"
}
layer {
  name: "conv3_2"
  type: "Convolution"
  bottom: "conv3_1"
  top: "conv3_2"
  param {
    lr_mult: 1
  }
  param {
    lr_mult: 2
  }
  convolution_param {
    num_output: 256
    pad: 1
    kernel_size: 3
  }
}
layer {
  name: "relu3_2"
  type: "ReLU"
  bottom: "conv3_2"
  top: "conv3_2"
}
layer {
  name: "conv3_3"
  type: "Convolution"
  bottom: "conv3_2"
  top: "conv3_3"
  param {
    lr_mult: 1
  }
  param {
    lr_mult: 2
  }
  convolution_param {
    num_output: 256
    pad: 1
    kernel_size: 3
  }
}
layer {
  name: "relu3_3"
  type: "ReLU"
  bottom: "conv3_3"
  top: "conv3_3"
}
layer {
  name: "pool3"
  type: "Pooling"
  bottom: "conv3_3"
  top: "pool3"
  pooling_param {
    pool: MAX
    kernel_size: 2
    stride: 2
  }
}
layer {
  name: "conv4_1"
  type: "Convolution"
  bottom: "pool3"
  top: "conv4_1"
  param {
    lr_mult: 1
  }
  param {
    lr_mult: 2
  }
  convolution_param {
    num_output: 512
    pad: 1
    kernel_size: 3
  }
}
layer {
  name: "relu4_1"
  type: "ReLU"
  bottom: "conv4_1"
  top: "conv4_1"
}
layer {
  name: "conv4_2"
  type: "Convolution"
  bottom: "conv4_1"
  top: "conv4_2"
  param {
    lr_mult: 1
  }
  param {
    lr_mult: 2
  }
  convolution_param {
    num_output: 512
    pad: 1
    kernel_size: 3
  }
}
layer {
  name: "relu4_2"
  type: "ReLU"
  bottom: "conv4_2"
  top: "conv4_2"
}
layer {
  name: "conv4_3"
  type: "Convolution"
  bottom: "conv4_2"
  top: "conv4_3"
  param {
    lr_mult: 1
  }
  param {
    lr_mult: 2
  }
  convolution_param {
    num_output: 512
    pad: 1
    kernel_size: 3
  }
}
layer {
  name: "relu4_3"
  type: "ReLU"
  bottom: "conv4_3"
  top: "conv4_3"
}
layer {
  name: "pool4"
  type: "Pooling"
  bottom: "conv4_3"
  top: "pool4"
  pooling_param {
    pool: MAX
    kernel_size: 2
    stride: 2
  }
}
layer {
  name: "conv5_1"
  type: "Convolution"
  bottom: "pool4"
  top: "conv5_1"
  param {
    lr_mult: 1
  }
  param {
    lr_mult: 2
  }
  convolution_param {
    num_output: 512
    pad: 1
    kernel_size: 3
  }
}
layer {
  name: "relu5_1"
  type: "ReLU"
  bottom: "conv5_1"
  top: "conv5_1"
}
layer {
  name: "conv5_2"
  type: "Convolution"
  bottom: "conv5_1"
  top: "conv5_2"
  param {
    lr_mult: 1
  }
  param {
    lr_mult: 2
  }
  convolution_param {
    num_output: 512
    pad: 1
    kernel_size: 3
  }
}
layer {
  name: "relu5_2"
  type: "ReLU"
  bottom: "conv5_2"
  top: "conv5_2"
}
layer {
  name: "conv5_3"
  type: "Convolution"
  bottom: "conv5_2"
  top: "conv5_3"
  param {
    lr_mult: 1
  }
  param {
    lr_mult: 2
  }
  convolution_param {
    num_output: 512
    pad: 1
    kernel_size: 3
  }
}
layer {
  name: "relu5_3"
  type: "ReLU"
  bottom: "conv5_3"
  top: "conv5_3"
}
layer {
  name: "rpn_conv/3x3"
  type: "Convolution"
  bottom: "conv5_3"
  top: "rpn/output"
  param {
    lr_mult: 1
  }
  param {
    lr_mult: 2
  }
  convolution_param {
    num_output: 512
    pad: 1
    kernel_size: 3
    stride: 1
    weight_filler {
      type: "gaussian"
      std: 0.01
    }
    bias_filler {
      type: "constant"
      value: 0
    }
  }
}
layer {
  name: "rpn_relu/3x3"
  type: "ReLU"
  bottom: "rpn/output"
  top: "rpn/output"
}
layer {
  name: "rpn_cls_score"
  type: "Convolution"
  bottom: "rpn/output"
  top: "rpn_cls_score"
  param {
    lr_mult: 1
  }
  param {
    lr_mult: 2
  }
  convolution_param {
    num_output: 18
    pad: 0
    kernel_size: 1
    stride: 1
    weight_filler {
      type: "gaussian"
      std: 0.01
    }
    bias_filler {
      type: "constant"
      value: 0
    }
  }
}
layer {
  name: "rpn_bbox_pred"
  type: "Convolution"
  bottom: "rpn/output"
  top: "rpn_bbox_pred"
  param {
    lr_mult: 1
  }
  param {
    lr_mult: 2
  }
  convolution_param {
    num_output: 36
    pad: 0
    kernel_size: 1
    stride: 1
    weight_filler {
      type: "gaussian"
      std: 0.01
    }
    bias_filler {
      type: "constant"
      value: 0
    }
  }
}
layer {
  name: "rpn_cls_score_reshape"
  type: "Reshape"
  bottom: "rpn_cls_score"
  top: "rpn_cls_score_reshape"
  reshape_param {
    shape {
      dim: 0
      dim: 2
      dim: -1
      dim: 0
    }
  }
}
layer {
  name: "rpn-data"
  type: "Python"
  bottom: "rpn_cls_score"
  bottom: "gt_boxes"
  bottom: "im_info"
  bottom: "data"
  top: "rpn_labels"
  top: "rpn_bbox_targets"
  top: "rpn_bbox_inside_weights"
  top: "rpn_bbox_outside_weights"
  python_param {
    module: "rpn.anchor_target_layer"
    layer: "AnchorTargetLayer"
    param_str: "\'feat_stride\': 16"
  }
}
layer {
  name: "rpn_loss_cls"
  type: "SoftmaxWithLoss"
  bottom: "rpn_cls_score_reshape"
  bottom: "rpn_labels"
  top: "rpn_cls_loss"
  loss_weight: 1
  propagate_down: true
  propagate_down: false
  loss_param {
    ignore_label: -1
    normalize: true
  }
}
layer {
  name: "rpn_loss_bbox"
  type: "SmoothL1Loss"
  bottom: "rpn_bbox_pred"
  bottom: "rpn_bbox_targets"
  bottom: "rpn_bbox_inside_weights"
  bottom: "rpn_bbox_outside_weights"
  top: "rpn_loss_bbox"
  loss_weight: 1
  smooth_l1_loss_param {
    sigma: 3
  }
}
layer {
  name: "rpn_cls_prob"
  type: "Softmax"
  bottom: "rpn_cls_score_reshape"
  top: "rpn_cls_prob"
}
layer {
  name: "rpn_cls_prob_reshape"
  type: "Reshape"
  bottom: "rpn_cls_prob"
  top: "rpn_cls_prob_reshape"
  reshape_param {
    shape {
      dim: 0
      dim: 18
      dim: -1
      dim: 0
    }
  }
}
layer {
  name: "proposal"
  type: "Python"
  bottom: "rpn_cls_prob_reshape"
  bottom: "rpn_bbox_pred"
  bottom: "im_info"
  top: "rpn_rois"
  python_param {
    module: "rpn.proposal_layer"
    layer: "ProposalLayer"
    param_str: "\'feat_stride\': 16"
  }
}
layer {
  name: "roi-data"
  type: "Python"
  bottom: "rpn_rois"
  bottom: "gt_boxes"
  top: "rois"
  top: "labels"
  top: "bbox_targets"
  top: "bbox_inside_weights"
  top: "bbox_outside_weights"
  python_param {
    module: "rpn.proposal_target_layer"
    layer: "ProposalTargetLayer"
    param_str: "\'num_classes\': 2"
  }
}
layer {
  name: "roi_pool5"
  type: "ROIPooling"
  bottom: "conv5_3"
  bottom: "rois"
  top: "pool5"
  roi_pooling_param {
    pooled_h: 7
    pooled_w: 7
    spatial_scale: 0.0625
  }
}
layer {
  name: "fc6"
  type: "InnerProduct"
  bottom: "pool5"
  top: "fc6"
  param {
    lr_mult: 1
  }
  param {
    lr_mult: 2
  }
  inner_product_param {
    num_output: 4096
  }
}
layer {
  name: "relu6"
  type: "ReLU"
  bottom: "fc6"
  top: "fc6"
}
layer {
  name: "drop6"
  type: "Dropout"
  bottom: "fc6"
  top: "fc6"
  dropout_param {
    dropout_ratio: 0.5
  }
}
layer {
  name: "fc7"
  type: "InnerProduct"
  bottom: "fc6"
  top: "fc7"
  param {
    lr_mult: 1
  }
  param {
    lr_mult: 2
  }
  inner_product_param {
    num_output: 4096
  }
}
layer {
  name: "relu7"
  type: "ReLU"
  bottom: "fc7"
  top: "fc7"
}
layer {
  name: "drop7"
  type: "Dropout"
  bottom: "fc7"
  top: "fc7"
  dropout_param {
    dropout_ratio: 0.5
  }
}
layer {
  name: "cls_score"
  type: "InnerProduct"
  bottom: "fc7"
  top: "cls_score"
  param {
    lr_mult: 1
  }
  param {
    lr_mult: 2
  }
  inner_product_param {
    num_output: 2
    weight_filler {
      type: "gaussian"
      std: 0.01
    }
    bias_filler {
      type: "constant"
      value: 0
    }
  }
}
layer {
  name: "bbox_pred"
  type: "InnerProduct"
  bottom: "fc7"
  top: "bbox_pred"
  param {
    lr_mult: 1
  }
  param {
    lr_mult: 2
  }
  inner_product_param {
    num_output: 8
    weight_filler {
      type: "gaussian"
      std: 0.001
    }
    bias_filler {
      type: "constant"
      value: 0
    }
  }
}
layer {
  name: "loss_cls"
  type: "SoftmaxWithLoss"
  bottom: "cls_score"
  bottom: "labels"
  top: "loss_cls"
  loss_weight: 1
  propagate_down: true
  propagate_down: false
}
layer {
  name: "loss_bbox"
  type: "SmoothL1Loss"
  bottom: "bbox_pred"
  bottom: "bbox_targets"
  bottom: "bbox_inside_weights"
  bottom: "bbox_outside_weights"
  top: "loss_bbox"
  loss_weight: 1
}
I0101 02:34:43.115334 28908 layer_factory.hpp:77] Creating layer input-data
I0101 02:34:43.124531 28908 net.cpp:100] Creating Layer input-data
I0101 02:34:43.124554 28908 net.cpp:408] input-data -> data
I0101 02:34:43.124562 28908 net.cpp:408] input-data -> im_info
I0101 02:34:43.124565 28908 net.cpp:408] input-data -> gt_boxes
RoiDataLayer: name_to_top: {'gt_boxes': 2, 'data': 0, 'im_info': 1}
I0101 02:34:43.134637 28908 net.cpp:150] Setting up input-data
I0101 02:34:43.134657 28908 net.cpp:157] Top shape: 1 3 700 1000 (2100000)
I0101 02:34:43.134660 28908 net.cpp:157] Top shape: 1 3 (3)
I0101 02:34:43.134662 28908 net.cpp:157] Top shape: 1 4 (4)
I0101 02:34:43.134663 28908 net.cpp:165] Memory required for data: 8400028
I0101 02:34:43.134668 28908 layer_factory.hpp:77] Creating layer data_input-data_0_split
I0101 02:34:43.134683 28908 net.cpp:100] Creating Layer data_input-data_0_split
I0101 02:34:43.134686 28908 net.cpp:434] data_input-data_0_split <- data
I0101 02:34:43.134692 28908 net.cpp:408] data_input-data_0_split -> data_input-data_0_split_0
I0101 02:34:43.134701 28908 net.cpp:408] data_input-data_0_split -> data_input-data_0_split_1
I0101 02:34:43.134724 28908 net.cpp:150] Setting up data_input-data_0_split
I0101 02:34:43.134727 28908 net.cpp:157] Top shape: 1 3 700 1000 (2100000)
I0101 02:34:43.134730 28908 net.cpp:157] Top shape: 1 3 700 1000 (2100000)
I0101 02:34:43.134732 28908 net.cpp:165] Memory required for data: 25200028
I0101 02:34:43.134733 28908 layer_factory.hpp:77] Creating layer im_info_input-data_1_split
I0101 02:34:43.134737 28908 net.cpp:100] Creating Layer im_info_input-data_1_split
I0101 02:34:43.134738 28908 net.cpp:434] im_info_input-data_1_split <- im_info
I0101 02:34:43.134742 28908 net.cpp:408] im_info_input-data_1_split -> im_info_input-data_1_split_0
I0101 02:34:43.134744 28908 net.cpp:408] im_info_input-data_1_split -> im_info_input-data_1_split_1
I0101 02:34:43.134760 28908 net.cpp:150] Setting up im_info_input-data_1_split
I0101 02:34:43.134763 28908 net.cpp:157] Top shape: 1 3 (3)
I0101 02:34:43.134765 28908 net.cpp:157] Top shape: 1 3 (3)
I0101 02:34:43.134766 28908 net.cpp:165] Memory required for data: 25200052
I0101 02:34:43.134768 28908 layer_factory.hpp:77] Creating layer gt_boxes_input-data_2_split
I0101 02:34:43.134770 28908 net.cpp:100] Creating Layer gt_boxes_input-data_2_split
I0101 02:34:43.134773 28908 net.cpp:434] gt_boxes_input-data_2_split <- gt_boxes
I0101 02:34:43.134774 28908 net.cpp:408] gt_boxes_input-data_2_split -> gt_boxes_input-data_2_split_0
I0101 02:34:43.134778 28908 net.cpp:408] gt_boxes_input-data_2_split -> gt_boxes_input-data_2_split_1
I0101 02:34:43.134794 28908 net.cpp:150] Setting up gt_boxes_input-data_2_split
I0101 02:34:43.134798 28908 net.cpp:157] Top shape: 1 4 (4)
I0101 02:34:43.134799 28908 net.cpp:157] Top shape: 1 4 (4)
I0101 02:34:43.134801 28908 net.cpp:165] Memory required for data: 25200084
I0101 02:34:43.134802 28908 layer_factory.hpp:77] Creating layer conv1_1
I0101 02:34:43.134809 28908 net.cpp:100] Creating Layer conv1_1
I0101 02:34:43.134810 28908 net.cpp:434] conv1_1 <- data_input-data_0_split_0
I0101 02:34:43.134814 28908 net.cpp:408] conv1_1 -> conv1_1
I0101 02:34:43.282435 28908 net.cpp:150] Setting up conv1_1
I0101 02:34:43.282469 28908 net.cpp:157] Top shape: 1 64 700 1000 (44800000)
I0101 02:34:43.282471 28908 net.cpp:165] Memory required for data: 204400084
I0101 02:34:43.282485 28908 layer_factory.hpp:77] Creating layer relu1_1
I0101 02:34:43.282493 28908 net.cpp:100] Creating Layer relu1_1
I0101 02:34:43.282496 28908 net.cpp:434] relu1_1 <- conv1_1
I0101 02:34:43.282500 28908 net.cpp:395] relu1_1 -> conv1_1 (in-place)
I0101 02:34:43.282635 28908 net.cpp:150] Setting up relu1_1
I0101 02:34:43.282640 28908 net.cpp:157] Top shape: 1 64 700 1000 (44800000)
I0101 02:34:43.282642 28908 net.cpp:165] Memory required for data: 383600084
I0101 02:34:43.282644 28908 layer_factory.hpp:77] Creating layer conv1_2
I0101 02:34:43.282649 28908 net.cpp:100] Creating Layer conv1_2
I0101 02:34:43.282651 28908 net.cpp:434] conv1_2 <- conv1_1
I0101 02:34:43.282655 28908 net.cpp:408] conv1_2 -> conv1_2
I0101 02:34:43.284484 28908 net.cpp:150] Setting up conv1_2
I0101 02:34:43.284512 28908 net.cpp:157] Top shape: 1 64 700 1000 (44800000)
I0101 02:34:43.284514 28908 net.cpp:165] Memory required for data: 562800084
I0101 02:34:43.284523 28908 layer_factory.hpp:77] Creating layer relu1_2
I0101 02:34:43.284528 28908 net.cpp:100] Creating Layer relu1_2
I0101 02:34:43.284529 28908 net.cpp:434] relu1_2 <- conv1_2
I0101 02:34:43.284533 28908 net.cpp:395] relu1_2 -> conv1_2 (in-place)
I0101 02:34:43.284677 28908 net.cpp:150] Setting up relu1_2
I0101 02:34:43.284682 28908 net.cpp:157] Top shape: 1 64 700 1000 (44800000)
I0101 02:34:43.284698 28908 net.cpp:165] Memory required for data: 742000084
I0101 02:34:43.284700 28908 layer_factory.hpp:77] Creating layer pool1
I0101 02:34:43.284708 28908 net.cpp:100] Creating Layer pool1
I0101 02:34:43.284708 28908 net.cpp:434] pool1 <- conv1_2
I0101 02:34:43.284711 28908 net.cpp:408] pool1 -> pool1
I0101 02:34:43.284739 28908 net.cpp:150] Setting up pool1
I0101 02:34:43.284744 28908 net.cpp:157] Top shape: 1 64 350 500 (11200000)
I0101 02:34:43.284744 28908 net.cpp:165] Memory required for data: 786800084
I0101 02:34:43.284746 28908 layer_factory.hpp:77] Creating layer conv2_1
I0101 02:34:43.284750 28908 net.cpp:100] Creating Layer conv2_1
I0101 02:34:43.284752 28908 net.cpp:434] conv2_1 <- pool1
I0101 02:34:43.284755 28908 net.cpp:408] conv2_1 -> conv2_1
I0101 02:34:43.286039 28908 net.cpp:150] Setting up conv2_1
I0101 02:34:43.286048 28908 net.cpp:157] Top shape: 1 128 350 500 (22400000)
I0101 02:34:43.286051 28908 net.cpp:165] Memory required for data: 876400084
I0101 02:34:43.286056 28908 layer_factory.hpp:77] Creating layer relu2_1
I0101 02:34:43.286059 28908 net.cpp:100] Creating Layer relu2_1
I0101 02:34:43.286062 28908 net.cpp:434] relu2_1 <- conv2_1
I0101 02:34:43.286065 28908 net.cpp:395] relu2_1 -> conv2_1 (in-place)
I0101 02:34:43.286337 28908 net.cpp:150] Setting up relu2_1
I0101 02:34:43.286345 28908 net.cpp:157] Top shape: 1 128 350 500 (22400000)
I0101 02:34:43.286346 28908 net.cpp:165] Memory required for data: 966000084
I0101 02:34:43.286348 28908 layer_factory.hpp:77] Creating layer conv2_2
I0101 02:34:43.286353 28908 net.cpp:100] Creating Layer conv2_2
I0101 02:34:43.286355 28908 net.cpp:434] conv2_2 <- conv2_1
I0101 02:34:43.286360 28908 net.cpp:408] conv2_2 -> conv2_2
I0101 02:34:43.287645 28908 net.cpp:150] Setting up conv2_2
I0101 02:34:43.287653 28908 net.cpp:157] Top shape: 1 128 350 500 (22400000)
I0101 02:34:43.287669 28908 net.cpp:165] Memory required for data: 1055600084
I0101 02:34:43.287673 28908 layer_factory.hpp:77] Creating layer relu2_2
I0101 02:34:43.287678 28908 net.cpp:100] Creating Layer relu2_2
I0101 02:34:43.287679 28908 net.cpp:434] relu2_2 <- conv2_2
I0101 02:34:43.287683 28908 net.cpp:395] relu2_2 -> conv2_2 (in-place)
I0101 02:34:43.287809 28908 net.cpp:150] Setting up relu2_2
I0101 02:34:43.287814 28908 net.cpp:157] Top shape: 1 128 350 500 (22400000)
I0101 02:34:43.287830 28908 net.cpp:165] Memory required for data: 1145200084
I0101 02:34:43.287832 28908 layer_factory.hpp:77] Creating layer pool2
I0101 02:34:43.287837 28908 net.cpp:100] Creating Layer pool2
I0101 02:34:43.287839 28908 net.cpp:434] pool2 <- conv2_2
I0101 02:34:43.287842 28908 net.cpp:408] pool2 -> pool2
I0101 02:34:43.287868 28908 net.cpp:150] Setting up pool2
I0101 02:34:43.287873 28908 net.cpp:157] Top shape: 1 128 175 250 (5600000)
I0101 02:34:43.287873 28908 net.cpp:165] Memory required for data: 1167600084
I0101 02:34:43.287875 28908 layer_factory.hpp:77] Creating layer conv3_1
I0101 02:34:43.287879 28908 net.cpp:100] Creating Layer conv3_1
I0101 02:34:43.287881 28908 net.cpp:434] conv3_1 <- pool2
I0101 02:34:43.287884 28908 net.cpp:408] conv3_1 -> conv3_1
I0101 02:34:43.288771 28908 net.cpp:150] Setting up conv3_1
I0101 02:34:43.288794 28908 net.cpp:157] Top shape: 1 256 175 250 (11200000)
I0101 02:34:43.288796 28908 net.cpp:165] Memory required for data: 1212400084
I0101 02:34:43.288802 28908 layer_factory.hpp:77] Creating layer relu3_1
I0101 02:34:43.288806 28908 net.cpp:100] Creating Layer relu3_1
I0101 02:34:43.288808 28908 net.cpp:434] relu3_1 <- conv3_1
I0101 02:34:43.288811 28908 net.cpp:395] relu3_1 -> conv3_1 (in-place)
I0101 02:34:43.288933 28908 net.cpp:150] Setting up relu3_1
I0101 02:34:43.288938 28908 net.cpp:157] Top shape: 1 256 175 250 (11200000)
I0101 02:34:43.288939 28908 net.cpp:165] Memory required for data: 1257200084
I0101 02:34:43.288940 28908 layer_factory.hpp:77] Creating layer conv3_2
I0101 02:34:43.288947 28908 net.cpp:100] Creating Layer conv3_2
I0101 02:34:43.288949 28908 net.cpp:434] conv3_2 <- conv3_1
I0101 02:34:43.288952 28908 net.cpp:408] conv3_2 -> conv3_2
I0101 02:34:43.290446 28908 net.cpp:150] Setting up conv3_2
I0101 02:34:43.290455 28908 net.cpp:157] Top shape: 1 256 175 250 (11200000)
I0101 02:34:43.290472 28908 net.cpp:165] Memory required for data: 1302000084
I0101 02:34:43.290475 28908 layer_factory.hpp:77] Creating layer relu3_2
I0101 02:34:43.290479 28908 net.cpp:100] Creating Layer relu3_2
I0101 02:34:43.290482 28908 net.cpp:434] relu3_2 <- conv3_2
I0101 02:34:43.290484 28908 net.cpp:395] relu3_2 -> conv3_2 (in-place)
I0101 02:34:43.290607 28908 net.cpp:150] Setting up relu3_2
I0101 02:34:43.290612 28908 net.cpp:157] Top shape: 1 256 175 250 (11200000)
I0101 02:34:43.290628 28908 net.cpp:165] Memory required for data: 1346800084
I0101 02:34:43.290630 28908 layer_factory.hpp:77] Creating layer conv3_3
I0101 02:34:43.290635 28908 net.cpp:100] Creating Layer conv3_3
I0101 02:34:43.290637 28908 net.cpp:434] conv3_3 <- conv3_2
I0101 02:34:43.290642 28908 net.cpp:408] conv3_3 -> conv3_3
I0101 02:34:43.292094 28908 net.cpp:150] Setting up conv3_3
I0101 02:34:43.292102 28908 net.cpp:157] Top shape: 1 256 175 250 (11200000)
I0101 02:34:43.292119 28908 net.cpp:165] Memory required for data: 1391600084
I0101 02:34:43.292124 28908 layer_factory.hpp:77] Creating layer relu3_3
I0101 02:34:43.292126 28908 net.cpp:100] Creating Layer relu3_3
I0101 02:34:43.292129 28908 net.cpp:434] relu3_3 <- conv3_3
I0101 02:34:43.292131 28908 net.cpp:395] relu3_3 -> conv3_3 (in-place)
I0101 02:34:43.292266 28908 net.cpp:150] Setting up relu3_3
I0101 02:34:43.292271 28908 net.cpp:157] Top shape: 1 256 175 250 (11200000)
I0101 02:34:43.292289 28908 net.cpp:165] Memory required for data: 1436400084
I0101 02:34:43.292290 28908 layer_factory.hpp:77] Creating layer pool3
I0101 02:34:43.292294 28908 net.cpp:100] Creating Layer pool3
I0101 02:34:43.292296 28908 net.cpp:434] pool3 <- conv3_3
I0101 02:34:43.292299 28908 net.cpp:408] pool3 -> pool3
I0101 02:34:43.292347 28908 net.cpp:150] Setting up pool3
I0101 02:34:43.292351 28908 net.cpp:157] Top shape: 1 256 88 125 (2816000)
I0101 02:34:43.292352 28908 net.cpp:165] Memory required for data: 1447664084
I0101 02:34:43.292354 28908 layer_factory.hpp:77] Creating layer conv4_1
I0101 02:34:43.292359 28908 net.cpp:100] Creating Layer conv4_1
I0101 02:34:43.292361 28908 net.cpp:434] conv4_1 <- pool3
I0101 02:34:43.292363 28908 net.cpp:408] conv4_1 -> conv4_1
I0101 02:34:43.295605 28908 net.cpp:150] Setting up conv4_1
I0101 02:34:43.295621 28908 net.cpp:157] Top shape: 1 512 88 125 (5632000)
I0101 02:34:43.295624 28908 net.cpp:165] Memory required for data: 1470192084
I0101 02:34:43.295630 28908 layer_factory.hpp:77] Creating layer relu4_1
I0101 02:34:43.295636 28908 net.cpp:100] Creating Layer relu4_1
I0101 02:34:43.295639 28908 net.cpp:434] relu4_1 <- conv4_1
I0101 02:34:43.295642 28908 net.cpp:395] relu4_1 -> conv4_1 (in-place)
I0101 02:34:43.295760 28908 net.cpp:150] Setting up relu4_1
I0101 02:34:43.295765 28908 net.cpp:157] Top shape: 1 512 88 125 (5632000)
I0101 02:34:43.295768 28908 net.cpp:165] Memory required for data: 1492720084
I0101 02:34:43.295769 28908 layer_factory.hpp:77] Creating layer conv4_2
I0101 02:34:43.295775 28908 net.cpp:100] Creating Layer conv4_2
I0101 02:34:43.295778 28908 net.cpp:434] conv4_2 <- conv4_1
I0101 02:34:43.295780 28908 net.cpp:408] conv4_2 -> conv4_2
I0101 02:34:43.299626 28908 net.cpp:150] Setting up conv4_2
I0101 02:34:43.299646 28908 net.cpp:157] Top shape: 1 512 88 125 (5632000)
I0101 02:34:43.299649 28908 net.cpp:165] Memory required for data: 1515248084
I0101 02:34:43.299659 28908 layer_factory.hpp:77] Creating layer relu4_2
I0101 02:34:43.299665 28908 net.cpp:100] Creating Layer relu4_2
I0101 02:34:43.299667 28908 net.cpp:434] relu4_2 <- conv4_2
I0101 02:34:43.299672 28908 net.cpp:395] relu4_2 -> conv4_2 (in-place)
I0101 02:34:43.299940 28908 net.cpp:150] Setting up relu4_2
I0101 02:34:43.299948 28908 net.cpp:157] Top shape: 1 512 88 125 (5632000)
I0101 02:34:43.299949 28908 net.cpp:165] Memory required for data: 1537776084
I0101 02:34:43.299952 28908 layer_factory.hpp:77] Creating layer conv4_3
I0101 02:34:43.299957 28908 net.cpp:100] Creating Layer conv4_3
I0101 02:34:43.299959 28908 net.cpp:434] conv4_3 <- conv4_2
I0101 02:34:43.299962 28908 net.cpp:408] conv4_3 -> conv4_3
I0101 02:34:43.303675 28908 net.cpp:150] Setting up conv4_3
I0101 02:34:43.303694 28908 net.cpp:157] Top shape: 1 512 88 125 (5632000)
I0101 02:34:43.303697 28908 net.cpp:165] Memory required for data: 1560304084
I0101 02:34:43.303704 28908 layer_factory.hpp:77] Creating layer relu4_3
I0101 02:34:43.303709 28908 net.cpp:100] Creating Layer relu4_3
I0101 02:34:43.303711 28908 net.cpp:434] relu4_3 <- conv4_3
I0101 02:34:43.303715 28908 net.cpp:395] relu4_3 -> conv4_3 (in-place)
I0101 02:34:43.303824 28908 net.cpp:150] Setting up relu4_3
I0101 02:34:43.303829 28908 net.cpp:157] Top shape: 1 512 88 125 (5632000)
I0101 02:34:43.303831 28908 net.cpp:165] Memory required for data: 1582832084
I0101 02:34:43.303833 28908 layer_factory.hpp:77] Creating layer pool4
I0101 02:34:43.303838 28908 net.cpp:100] Creating Layer pool4
I0101 02:34:43.303839 28908 net.cpp:434] pool4 <- conv4_3
I0101 02:34:43.303843 28908 net.cpp:408] pool4 -> pool4
I0101 02:34:43.303870 28908 net.cpp:150] Setting up pool4
I0101 02:34:43.303874 28908 net.cpp:157] Top shape: 1 512 44 63 (1419264)
I0101 02:34:43.303876 28908 net.cpp:165] Memory required for data: 1588509140
I0101 02:34:43.303877 28908 layer_factory.hpp:77] Creating layer conv5_1
I0101 02:34:43.303882 28908 net.cpp:100] Creating Layer conv5_1
I0101 02:34:43.303884 28908 net.cpp:434] conv5_1 <- pool4
I0101 02:34:43.303887 28908 net.cpp:408] conv5_1 -> conv5_1
I0101 02:34:43.307521 28908 net.cpp:150] Setting up conv5_1
I0101 02:34:43.307543 28908 net.cpp:157] Top shape: 1 512 44 63 (1419264)
I0101 02:34:43.307544 28908 net.cpp:165] Memory required for data: 1594186196
I0101 02:34:43.307550 28908 layer_factory.hpp:77] Creating layer relu5_1
I0101 02:34:43.307556 28908 net.cpp:100] Creating Layer relu5_1
I0101 02:34:43.307559 28908 net.cpp:434] relu5_1 <- conv5_1
I0101 02:34:43.307564 28908 net.cpp:395] relu5_1 -> conv5_1 (in-place)
I0101 02:34:43.307677 28908 net.cpp:150] Setting up relu5_1
I0101 02:34:43.307682 28908 net.cpp:157] Top shape: 1 512 44 63 (1419264)
I0101 02:34:43.307684 28908 net.cpp:165] Memory required for data: 1599863252
I0101 02:34:43.307687 28908 layer_factory.hpp:77] Creating layer conv5_2
I0101 02:34:43.307693 28908 net.cpp:100] Creating Layer conv5_2
I0101 02:34:43.307694 28908 net.cpp:434] conv5_2 <- conv5_1
I0101 02:34:43.307698 28908 net.cpp:408] conv5_2 -> conv5_2
I0101 02:34:43.311998 28908 net.cpp:150] Setting up conv5_2
I0101 02:34:43.312016 28908 net.cpp:157] Top shape: 1 512 44 63 (1419264)
I0101 02:34:43.312018 28908 net.cpp:165] Memory required for data: 1605540308
I0101 02:34:43.312023 28908 layer_factory.hpp:77] Creating layer relu5_2
I0101 02:34:43.312029 28908 net.cpp:100] Creating Layer relu5_2
I0101 02:34:43.312032 28908 net.cpp:434] relu5_2 <- conv5_2
I0101 02:34:43.312036 28908 net.cpp:395] relu5_2 -> conv5_2 (in-place)
I0101 02:34:43.312144 28908 net.cpp:150] Setting up relu5_2
I0101 02:34:43.312150 28908 net.cpp:157] Top shape: 1 512 44 63 (1419264)
I0101 02:34:43.312151 28908 net.cpp:165] Memory required for data: 1611217364
I0101 02:34:43.312153 28908 layer_factory.hpp:77] Creating layer conv5_3
I0101 02:34:43.312173 28908 net.cpp:100] Creating Layer conv5_3
I0101 02:34:43.312176 28908 net.cpp:434] conv5_3 <- conv5_2
I0101 02:34:43.312180 28908 net.cpp:408] conv5_3 -> conv5_3
I0101 02:34:43.316042 28908 net.cpp:150] Setting up conv5_3
I0101 02:34:43.316061 28908 net.cpp:157] Top shape: 1 512 44 63 (1419264)
I0101 02:34:43.316063 28908 net.cpp:165] Memory required for data: 1616894420
I0101 02:34:43.316069 28908 layer_factory.hpp:77] Creating layer relu5_3
I0101 02:34:43.316076 28908 net.cpp:100] Creating Layer relu5_3
I0101 02:34:43.316077 28908 net.cpp:434] relu5_3 <- conv5_3
I0101 02:34:43.316082 28908 net.cpp:395] relu5_3 -> conv5_3 (in-place)
I0101 02:34:43.316208 28908 net.cpp:150] Setting up relu5_3
I0101 02:34:43.316215 28908 net.cpp:157] Top shape: 1 512 44 63 (1419264)
I0101 02:34:43.316216 28908 net.cpp:165] Memory required for data: 1622571476
I0101 02:34:43.316217 28908 layer_factory.hpp:77] Creating layer conv5_3_relu5_3_0_split
I0101 02:34:43.316221 28908 net.cpp:100] Creating Layer conv5_3_relu5_3_0_split
I0101 02:34:43.316223 28908 net.cpp:434] conv5_3_relu5_3_0_split <- conv5_3
I0101 02:34:43.316226 28908 net.cpp:408] conv5_3_relu5_3_0_split -> conv5_3_relu5_3_0_split_0
I0101 02:34:43.316231 28908 net.cpp:408] conv5_3_relu5_3_0_split -> conv5_3_relu5_3_0_split_1
I0101 02:34:43.316256 28908 net.cpp:150] Setting up conv5_3_relu5_3_0_split
I0101 02:34:43.316260 28908 net.cpp:157] Top shape: 1 512 44 63 (1419264)
I0101 02:34:43.316262 28908 net.cpp:157] Top shape: 1 512 44 63 (1419264)
I0101 02:34:43.316264 28908 net.cpp:165] Memory required for data: 1633925588
I0101 02:34:43.316267 28908 layer_factory.hpp:77] Creating layer rpn_conv/3x3
I0101 02:34:43.316272 28908 net.cpp:100] Creating Layer rpn_conv/3x3
I0101 02:34:43.316275 28908 net.cpp:434] rpn_conv/3x3 <- conv5_3_relu5_3_0_split_0
I0101 02:34:43.316279 28908 net.cpp:408] rpn_conv/3x3 -> rpn/output
I0101 02:34:43.335844 28908 net.cpp:150] Setting up rpn_conv/3x3
I0101 02:34:43.335860 28908 net.cpp:157] Top shape: 1 512 44 63 (1419264)
I0101 02:34:43.335862 28908 net.cpp:165] Memory required for data: 1639602644
I0101 02:34:43.335868 28908 layer_factory.hpp:77] Creating layer rpn_relu/3x3
I0101 02:34:43.335875 28908 net.cpp:100] Creating Layer rpn_relu/3x3
I0101 02:34:43.335876 28908 net.cpp:434] rpn_relu/3x3 <- rpn/output
I0101 02:34:43.335881 28908 net.cpp:395] rpn_relu/3x3 -> rpn/output (in-place)
I0101 02:34:43.336009 28908 net.cpp:150] Setting up rpn_relu/3x3
I0101 02:34:43.336014 28908 net.cpp:157] Top shape: 1 512 44 63 (1419264)
I0101 02:34:43.336015 28908 net.cpp:165] Memory required for data: 1645279700
I0101 02:34:43.336017 28908 layer_factory.hpp:77] Creating layer rpn/output_rpn_relu/3x3_0_split
I0101 02:34:43.336035 28908 net.cpp:100] Creating Layer rpn/output_rpn_relu/3x3_0_split
I0101 02:34:43.336035 28908 net.cpp:434] rpn/output_rpn_relu/3x3_0_split <- rpn/output
I0101 02:34:43.336038 28908 net.cpp:408] rpn/output_rpn_relu/3x3_0_split -> rpn/output_rpn_relu/3x3_0_split_0
I0101 02:34:43.336058 28908 net.cpp:408] rpn/output_rpn_relu/3x3_0_split -> rpn/output_rpn_relu/3x3_0_split_1
I0101 02:34:43.336086 28908 net.cpp:150] Setting up rpn/output_rpn_relu/3x3_0_split
I0101 02:34:43.336110 28908 net.cpp:157] Top shape: 1 512 44 63 (1419264)
I0101 02:34:43.336113 28908 net.cpp:157] Top shape: 1 512 44 63 (1419264)
I0101 02:34:43.336114 28908 net.cpp:165] Memory required for data: 1656633812
I0101 02:34:43.336117 28908 layer_factory.hpp:77] Creating layer rpn_cls_score
I0101 02:34:43.336123 28908 net.cpp:100] Creating Layer rpn_cls_score
I0101 02:34:43.336125 28908 net.cpp:434] rpn_cls_score <- rpn/output_rpn_relu/3x3_0_split_0
I0101 02:34:43.336129 28908 net.cpp:408] rpn_cls_score -> rpn_cls_score
I0101 02:34:43.337110 28908 net.cpp:150] Setting up rpn_cls_score
I0101 02:34:43.337117 28908 net.cpp:157] Top shape: 1 18 44 63 (49896)
I0101 02:34:43.337119 28908 net.cpp:165] Memory required for data: 1656833396
I0101 02:34:43.337123 28908 layer_factory.hpp:77] Creating layer rpn_cls_score_rpn_cls_score_0_split
I0101 02:34:43.337126 28908 net.cpp:100] Creating Layer rpn_cls_score_rpn_cls_score_0_split
I0101 02:34:43.337128 28908 net.cpp:434] rpn_cls_score_rpn_cls_score_0_split <- rpn_cls_score
I0101 02:34:43.337132 28908 net.cpp:408] rpn_cls_score_rpn_cls_score_0_split -> rpn_cls_score_rpn_cls_score_0_split_0
I0101 02:34:43.337141 28908 net.cpp:408] rpn_cls_score_rpn_cls_score_0_split -> rpn_cls_score_rpn_cls_score_0_split_1
I0101 02:34:43.337164 28908 net.cpp:150] Setting up rpn_cls_score_rpn_cls_score_0_split
I0101 02:34:43.337168 28908 net.cpp:157] Top shape: 1 18 44 63 (49896)
I0101 02:34:43.337170 28908 net.cpp:157] Top shape: 1 18 44 63 (49896)
I0101 02:34:43.337172 28908 net.cpp:165] Memory required for data: 1657232564
I0101 02:34:43.337173 28908 layer_factory.hpp:77] Creating layer rpn_bbox_pred
I0101 02:34:43.337179 28908 net.cpp:100] Creating Layer rpn_bbox_pred
I0101 02:34:43.337182 28908 net.cpp:434] rpn_bbox_pred <- rpn/output_rpn_relu/3x3_0_split_1
I0101 02:34:43.337185 28908 net.cpp:408] rpn_bbox_pred -> rpn_bbox_pred
I0101 02:34:43.338047 28908 net.cpp:150] Setting up rpn_bbox_pred
I0101 02:34:43.338053 28908 net.cpp:157] Top shape: 1 36 44 63 (99792)
I0101 02:34:43.338070 28908 net.cpp:165] Memory required for data: 1657631732
I0101 02:34:43.338074 28908 layer_factory.hpp:77] Creating layer rpn_bbox_pred_rpn_bbox_pred_0_split
I0101 02:34:43.338078 28908 net.cpp:100] Creating Layer rpn_bbox_pred_rpn_bbox_pred_0_split
I0101 02:34:43.338080 28908 net.cpp:434] rpn_bbox_pred_rpn_bbox_pred_0_split <- rpn_bbox_pred
I0101 02:34:43.338083 28908 net.cpp:408] rpn_bbox_pred_rpn_bbox_pred_0_split -> rpn_bbox_pred_rpn_bbox_pred_0_split_0
I0101 02:34:43.338088 28908 net.cpp:408] rpn_bbox_pred_rpn_bbox_pred_0_split -> rpn_bbox_pred_rpn_bbox_pred_0_split_1
I0101 02:34:43.338135 28908 net.cpp:150] Setting up rpn_bbox_pred_rpn_bbox_pred_0_split
I0101 02:34:43.338138 28908 net.cpp:157] Top shape: 1 36 44 63 (99792)
I0101 02:34:43.338140 28908 net.cpp:157] Top shape: 1 36 44 63 (99792)
I0101 02:34:43.338142 28908 net.cpp:165] Memory required for data: 1658430068
I0101 02:34:43.338143 28908 layer_factory.hpp:77] Creating layer rpn_cls_score_reshape
I0101 02:34:43.338148 28908 net.cpp:100] Creating Layer rpn_cls_score_reshape
I0101 02:34:43.338150 28908 net.cpp:434] rpn_cls_score_reshape <- rpn_cls_score_rpn_cls_score_0_split_0
I0101 02:34:43.338153 28908 net.cpp:408] rpn_cls_score_reshape -> rpn_cls_score_reshape
I0101 02:34:43.338171 28908 net.cpp:150] Setting up rpn_cls_score_reshape
I0101 02:34:43.338173 28908 net.cpp:157] Top shape: 1 2 396 63 (49896)
I0101 02:34:43.338176 28908 net.cpp:165] Memory required for data: 1658629652
I0101 02:34:43.338176 28908 layer_factory.hpp:77] Creating layer rpn_cls_score_reshape_rpn_cls_score_reshape_0_split
I0101 02:34:43.338179 28908 net.cpp:100] Creating Layer rpn_cls_score_reshape_rpn_cls_score_reshape_0_split
I0101 02:34:43.338181 28908 net.cpp:434] rpn_cls_score_reshape_rpn_cls_score_reshape_0_split <- rpn_cls_score_reshape
I0101 02:34:43.338184 28908 net.cpp:408] rpn_cls_score_reshape_rpn_cls_score_reshape_0_split -> rpn_cls_score_reshape_rpn_cls_score_reshape_0_split_0
I0101 02:34:43.338189 28908 net.cpp:408] rpn_cls_score_reshape_rpn_cls_score_reshape_0_split -> rpn_cls_score_reshape_rpn_cls_score_reshape_0_split_1
I0101 02:34:43.338212 28908 net.cpp:150] Setting up rpn_cls_score_reshape_rpn_cls_score_reshape_0_split
I0101 02:34:43.338215 28908 net.cpp:157] Top shape: 1 2 396 63 (49896)
I0101 02:34:43.338217 28908 net.cpp:157] Top shape: 1 2 396 63 (49896)
I0101 02:34:43.338218 28908 net.cpp:165] Memory required for data: 1659028820
I0101 02:34:43.338220 28908 layer_factory.hpp:77] Creating layer rpn-data
I0101 02:34:43.347303 28908 net.cpp:100] Creating Layer rpn-data
I0101 02:34:43.347311 28908 net.cpp:434] rpn-data <- rpn_cls_score_rpn_cls_score_0_split_1
I0101 02:34:43.347316 28908 net.cpp:434] rpn-data <- gt_boxes_input-data_2_split_0
I0101 02:34:43.347317 28908 net.cpp:434] rpn-data <- im_info_input-data_1_split_0
I0101 02:34:43.347321 28908 net.cpp:434] rpn-data <- data_input-data_0_split_1
I0101 02:34:43.347323 28908 net.cpp:408] rpn-data -> rpn_labels
I0101 02:34:43.347328 28908 net.cpp:408] rpn-data -> rpn_bbox_targets
I0101 02:34:43.347332 28908 net.cpp:408] rpn-data -> rpn_bbox_inside_weights
I0101 02:34:43.347337 28908 net.cpp:408] rpn-data -> rpn_bbox_outside_weights
I0101 02:34:43.347810 28908 net.cpp:150] Setting up rpn-data
I0101 02:34:43.347818 28908 net.cpp:157] Top shape: 1 1 396 63 (24948)
I0101 02:34:43.347820 28908 net.cpp:157] Top shape: 1 36 44 63 (99792)
I0101 02:34:43.347822 28908 net.cpp:157] Top shape: 1 36 44 63 (99792)
I0101 02:34:43.347825 28908 net.cpp:157] Top shape: 1 36 44 63 (99792)
I0101 02:34:43.347826 28908 net.cpp:165] Memory required for data: 1660326116
I0101 02:34:43.347828 28908 layer_factory.hpp:77] Creating layer rpn_loss_cls
I0101 02:34:43.347832 28908 net.cpp:100] Creating Layer rpn_loss_cls
I0101 02:34:43.347834 28908 net.cpp:434] rpn_loss_cls <- rpn_cls_score_reshape_rpn_cls_score_reshape_0_split_0
I0101 02:34:43.347836 28908 net.cpp:434] rpn_loss_cls <- rpn_labels
…
I0101 02:34:43.348682 28908 net.cpp:157] Top shape: (1)
I0101 02:34:43.348685 28908 net.cpp:160]     with loss weight 1
I0101 02:34:43.348686 28908 net.cpp:165] Memory required for data: 1660326124
I0101 02:34:43.348687 28908 layer_factory.hpp:77] Creating layer rpn_cls_prob
I0101 02:34:43.348691 28908 net.cpp:100] Creating Layer rpn_cls_prob
I0101 02:34:43.348693 28908 net.cpp:434] rpn_cls_prob <- rpn_cls_score_reshape_rpn_cls_score_reshape_0_split_1
I0101 02:34:43.348695 28908 net.cpp:408] rpn_cls_prob -> rpn_cls_prob
I0101 02:34:43.348839 28908 net.cpp:150] Setting up rpn_cls_prob
I0101 02:34:43.348845 28908 net.cpp:157] Top shape: 1 2 396 63 (49896)
I0101 02:34:43.348846 28908 net.cpp:165] Memory required for data: 1660525708
I0101 02:34:43.348848 28908 layer_factory.hpp:77] Creating layer rpn_cls_prob_reshape
I0101 02:34:43.348852 28908 net.cpp:100] Creating Layer rpn_cls_prob_reshape
I0101 02:34:43.348853 28908 net.cpp:434] rpn_cls_prob_reshape <- rpn_cls_prob
I0101 02:34:43.348857 28908 net.cpp:408] rpn_cls_prob_reshape -> rpn_cls_prob_reshape
I0101 02:34:43.348873 28908 net.cpp:150] Setting up rpn_cls_prob_reshape
I0101 02:34:43.348876 28908 net.cpp:157] Top shape: 1 18 44 63 (49896)
I0101 02:34:43.348878 28908 net.cpp:165] Memory required for data: 1660725292
I0101 02:34:43.348881 28908 layer_factory.hpp:77] Creating layer proposal
I0101 02:34:43.349300 28908 net.cpp:100] Creating Layer proposal
I0101 02:34:43.349308 28908 net.cpp:434] proposal <- rpn_cls_prob_reshape
I0101 02:34:43.349310 28908 net.cpp:434] proposal <- rpn_bbox_pred_rpn_bbox_pred_0_split_1
I0101 02:34:43.349313 28908 net.cpp:434] proposal <- im_info_input-data_1_split_1
I0101 02:34:43.349316 28908 net.cpp:408] proposal -> rpn_rois
I0101 02:34:43.349755 28908 net.cpp:150] Setting up proposal
I0101 02:34:43.349762 28908 net.cpp:157] Top shape: 1 5 (5)
I0101 02:34:43.349764 28908 net.cpp:165] Memory required for data: 1660725312
I0101 02:34:43.349766 28908 layer_factory.hpp:77] Creating layer roi-data
I0101 02:34:43.376189 28908 net.cpp:100] Creating Layer roi-data
I0101 02:34:43.376207 28908 net.cpp:434] roi-data <- rpn_rois
I0101 02:34:43.376214 28908 net.cpp:434] roi-data <- gt_boxes_input-data_2_split_1
I0101 02:34:43.376217 28908 net.cpp:408] roi-data -> rois
I0101 02:34:43.376224 28908 net.cpp:408] roi-data -> labels
I0101 02:34:43.376227 28908 net.cpp:408] roi-data -> bbox_targets
I0101 02:34:43.376231 28908 net.cpp:408] roi-data -> bbox_inside_weights
I0101 02:34:43.376235 28908 net.cpp:408] roi-data -> bbox_outside_weights
I0101 02:34:43.376626 28908 net.cpp:150] Setting up roi-data
I0101 02:34:43.376636 28908 net.cpp:157] Top shape: 1 5 (5)
I0101 02:34:43.376639 28908 net.cpp:157] Top shape: 1 1 (1)
I0101 02:34:43.376641 28908 net.cpp:157] Top shape: 1 8 (8)
I0101 02:34:43.376642 28908 net.cpp:157] Top shape: 1 8 (8)
I0101 02:34:43.376644 28908 net.cpp:157] Top shape: 1 8 (8)
I0101 02:34:43.376646 28908 net.cpp:165] Memory required for data: 1660725432
I0101 02:34:43.376648 28908 layer_factory.hpp:77] Creating layer roi_pool5
I0101 02:34:43.376654 28908 net.cpp:100] Creating Layer roi_pool5
I0101 02:34:43.376657 28908 net.cpp:434] roi_pool5 <- conv5_3_relu5_3_0_split_1
I0101 02:34:43.376662 28908 net.cpp:434] roi_pool5 <- rois
I0101 02:34:43.376664 28908 net.cpp:408] roi_pool5 -> pool5
I0101 02:34:43.376669 28908 roi_pooling_layer.cpp:30] Spatial scale: 0.0625
I0101 02:34:43.376704 28908 net.cpp:150] Setting up roi_pool5
I0101 02:34:43.376708 28908 net.cpp:157] Top shape: 1 512 7 7 (25088)
I0101 02:34:43.376709 28908 net.cpp:165] Memory required for data: 1660825784
I0101 02:34:43.376711 28908 layer_factory.hpp:77] Creating layer fc6
I0101 02:34:43.376715 28908 net.cpp:100] Creating Layer fc6
I0101 02:34:43.376718 28908 net.cpp:434] fc6 <- pool5
I0101 02:34:43.376720 28908 net.cpp:408] fc6 -> fc6
I0101 02:34:43.537771 28908 net.cpp:150] Setting up fc6
I0101 02:34:43.537806 28908 net.cpp:157] Top shape: 1 4096 (4096)
I0101 02:34:43.537807 28908 net.cpp:165] Memory required for data: 1660842168
I0101 02:34:43.537834 28908 layer_factory.hpp:77] Creating layer relu6
I0101 02:34:43.537845 28908 net.cpp:100] Creating Layer relu6
I0101 02:34:43.537848 28908 net.cpp:434] relu6 <- fc6
I0101 02:34:43.537853 28908 net.cpp:395] relu6 -> fc6 (in-place)
I0101 02:34:43.538065 28908 net.cpp:150] Setting up relu6
I0101 02:34:43.538070 28908 net.cpp:157] Top shape: 1 4096 (4096)
I0101 02:34:43.538072 28908 net.cpp:165] Memory required for data: 1660858552
I0101 02:34:43.538074 28908 layer_factory.hpp:77] Creating layer drop6
I0101 02:34:43.538079 28908 net.cpp:100] Creating Layer drop6
I0101 02:34:43.538081 28908 net.cpp:434] drop6 <- fc6
I0101 02:34:43.538084 28908 net.cpp:395] drop6 -> fc6 (in-place)
I0101 02:34:43.538105 28908 net.cpp:150] Setting up drop6
I0101 02:34:43.538108 28908 net.cpp:157] Top shape: 1 4096 (4096)
I0101 02:34:43.538110 28908 net.cpp:165] Memory required for data: 1660874936
I0101 02:34:43.538111 28908 layer_factory.hpp:77] Creating layer fc7
I0101 02:34:43.538115 28908 net.cpp:100] Creating Layer fc7
I0101 02:34:43.538116 28908 net.cpp:434] fc7 <- fc6
I0101 02:34:43.538120 28908 net.cpp:408] fc7 -> fc7
I0101 02:34:43.565646 28908 net.cpp:150] Setting up fc7
I0101 02:34:43.565670 28908 net.cpp:157] Top shape: 1 4096 (4096)
I0101 02:34:43.565671 28908 net.cpp:165] Memory required for data: 1660891320
I0101 02:34:43.565678 28908 layer_factory.hpp:77] Creating layer relu7
I0101 02:34:43.565683 28908 net.cpp:100] Creating Layer relu7
I0101 02:34:43.565686 28908 net.cpp:434] relu7 <- fc7
I0101 02:34:43.565690 28908 net.cpp:395] relu7 -> fc7 (in-place)
I0101 02:34:43.565903 28908 net.cpp:150] Setting up relu7
I0101 02:34:43.565908 28908 net.cpp:157] Top shape: 1 4096 (4096)
I0101 02:34:43.565910 28908 net.cpp:165] Memory required for data: 1660907704
I0101 02:34:43.565912 28908 layer_factory.hpp:77] Creating layer drop7
I0101 02:34:43.565917 28908 net.cpp:100] Creating Layer drop7
I0101 02:34:43.565918 28908 net.cpp:434] drop7 <- fc7
I0101 02:34:43.565922 28908 net.cpp:395] drop7 -> fc7 (in-place)
I0101 02:34:43.565939 28908 net.cpp:150] Setting up drop7
I0101 02:34:43.565943 28908 net.cpp:157] Top shape: 1 4096 (4096)
I0101 02:34:43.565944 28908 net.cpp:165] Memory required for data: 1660924088
I0101 02:34:43.565945 28908 layer_factory.hpp:77] Creating layer fc7_drop7_0_split
I0101 02:34:43.565949 28908 net.cpp:100] Creating Layer fc7_drop7_0_split
I0101 02:34:43.565951 28908 net.cpp:434] fc7_drop7_0_split <- fc7
I0101 02:34:43.565953 28908 net.cpp:408] fc7_drop7_0_split -> fc7_drop7_0_split_0
I0101 02:34:43.565958 28908 net.cpp:408] fc7_drop7_0_split -> fc7_drop7_0_split_1
I0101 02:34:43.565984 28908 net.cpp:150] Setting up fc7_drop7_0_split
I0101 02:34:43.565987 28908 net.cpp:157] Top shape: 1 4096 (4096)
I0101 02:34:43.565989 28908 net.cpp:157] Top shape: 1 4096 (4096)
I0101 02:34:43.565991 28908 net.cpp:165] Memory required for data: 1660956856
I0101 02:34:43.565992 28908 layer_factory.hpp:77] Creating layer cls_score
I0101 02:34:43.565997 28908 net.cpp:100] Creating Layer cls_score
I0101 02:34:43.565999 28908 net.cpp:434] cls_score <- fc7_drop7_0_split_0
I0101 02:34:43.566002 28908 net.cpp:408] cls_score -> cls_score
I0101 02:34:43.566123 28908 net.cpp:150] Setting up cls_score
I0101 02:34:43.566126 28908 net.cpp:157] Top shape: 1 2 (2)
I0101 02:34:43.566128 28908 net.cpp:165] Memory required for data: 1660956864
I0101 02:34:43.566131 28908 layer_factory.hpp:77] Creating layer bbox_pred
I0101 02:34:43.566134 28908 net.cpp:100] Creating Layer bbox_pred
I0101 02:34:43.566136 28908 net.cpp:434] bbox_pred <- fc7_drop7_0_split_1
I0101 02:34:43.566139 28908 net.cpp:408] bbox_pred -> bbox_pred
I0101 02:34:43.566417 28908 net.cpp:150] Setting up bbox_pred
I0101 02:34:43.566421 28908 net.cpp:157] Top shape: 1 8 (8)
I0101 02:34:43.566422 28908 net.cpp:165] Memory required for data: 1660956896
I0101 02:34:43.566426 28908 layer_factory.hpp:77] Creating layer loss_cls
I0101 02:34:43.566428 28908 net.cpp:100] Creating Layer loss_cls
I0101 02:34:43.566431 28908 net.cpp:434] loss_cls <- cls_score
I0101 02:34:43.566432 28908 net.cpp:434] loss_cls <- labels
I0101 02:34:43.566439 28908 net.cpp:408] loss_cls -> loss_cls
…
I0101 08:41:19.317090  3884 upgrade_proto.cpp:70] Successfully upgraded file specified using deprecated input fields.
W0101 08:41:19.317092  3884 upgrade_proto.cpp:72] Note that future Caffe releases will only support input layers and not input fields.
I0101 08:41:19.317293  3884 net.cpp:58] Initializing net from parameters: 
name: "VGG_ILSVRC_16_layers"
state {
  phase: TEST
  level: 0
}
layer {
  name: "input"
  type: "Input"
  top: "data"
  top: "im_info"
  input_param {
    shape {
      dim: 1
      dim: 3
      dim: 224
      dim: 224
    }
    shape {
      dim: 1
      dim: 3
    }
  }
}
layer {
  name: "conv1_1"
  type: "Convolution"
  bottom: "data"
  top: "conv1_1"
  param {
    lr_mult: 0
    decay_mult: 0
  }
  param {
    lr_mult: 0
    decay_mult: 0
  }
  convolution_param {
    num_output: 64
    pad: 1
    kernel_size: 3
  }
}
layer {
  name: "relu1_1"
  type: "ReLU"
  bottom: "conv1_1"
  top: "conv1_1"
}
layer {
  name: "conv1_2"
  type: "Convolution"
  bottom: "conv1_1"
  top: "conv1_2"
  param {
    lr_mult: 0
    decay_mult: 0
  }
  param {
    lr_mult: 0
    decay_mult: 0
  }
  convolution_param {
    num_output: 64
    pad: 1
    kernel_size: 3
  }
}
layer {
  name: "relu1_2"
  type: "ReLU"
  bottom: "conv1_2"
  top: "conv1_2"
}
layer {
  name: "pool1"
  type: "Pooling"
  bottom: "conv1_2"
  top: "pool1"
  pooling_param {
    pool: MAX
    kernel_size: 2
    stride: 2
  }
}
layer {
  name: "conv2_1"
  type: "Convolution"
  bottom: "pool1"
  top: "conv2_1"
  param {
    lr_mult: 0
    decay_mult: 0
  }
  param {
    lr_mult: 0
    decay_mult: 0
  }
  convolution_param {
    num_output: 128
    pad: 1
    kernel_size: 3
  }
}
layer {
  name: "relu2_1"
  type: "ReLU"
  bottom: "conv2_1"
  top: "conv2_1"
}
layer {
  name: "conv2_2"
  type: "Convolution"
  bottom: "conv2_1"
  top: "conv2_2"
  param {
    lr_mult: 0
    decay_mult: 0
  }
  param {
    lr_mult: 0
    decay_mult: 0
  }
  convolution_param {
    num_output: 128
    pad: 1
    kernel_size: 3
  }
}
layer {
  name: "relu2_2"
  type: "ReLU"
  bottom: "conv2_2"
  top: "conv2_2"
}
layer {
  name: "pool2"
  type: "Pooling"
  bottom: "conv2_2"
  top: "pool2"
  pooling_param {
    pool: MAX
    kernel_size: 2
    stride: 2
  }
}
layer {
  name: "conv3_1"
  type: "Convolution"
  bottom: "pool2"
  top: "conv3_1"
  param {
    lr_mult: 1
    decay_mult: 1
  }
  param {
    lr_mult: 2
    decay_mult: 0
  }
  convolution_param {
    num_output: 256
    pad: 1
    kernel_size: 3
  }
}
layer {
  name: "relu3_1"
  type: "ReLU"
  bottom: "conv3_1"
  top: "conv3_1"
}
layer {
  name: "conv3_2"
  type: "Convolution"
  bottom: "conv3_1"
  top: "conv3_2"
  param {
    lr_mult: 1
    decay_mult: 1
  }
  param {
    lr_mult: 2
    decay_mult: 0
  }
  convolution_param {
    num_output: 256
    pad: 1
    kernel_size: 3
  }
}
layer {
  name: "relu3_2"
  type: "ReLU"
  bottom: "conv3_2"
  top: "conv3_2"
}
layer {
  name: "conv3_3"
  type: "Convolution"
  bottom: "conv3_2"
  top: "conv3_3"
  param {
    lr_mult: 1
    decay_mult: 1
  }
  param {
    lr_mult: 2
    decay_mult: 0
  }
  convolution_param {
    num_output: 256
    pad: 1
    kernel_size: 3
  }
}
layer {
  name: "relu3_3"
  type: "ReLU"
  bottom: "conv3_3"
  top: "conv3_3"
}
layer {
  name: "pool3"
  type: "Pooling"
  bottom: "conv3_3"
  top: "pool3"
  pooling_param {
    pool: MAX
    kernel_size: 2
    stride: 2
  }
}
layer {
  name: "conv4_1"
  type: "Convolution"
  bottom: "pool3"
  top: "conv4_1"
  param {
    lr_mult: 1
    decay_mult: 1
  }
  param {
    lr_mult: 2
    decay_mult: 0
  }
  convolution_param {
    num_output: 512
    pad: 1
    kernel_size: 3
  }
}
layer {
  name: "relu4_1"
  type: "ReLU"
  bottom: "conv4_1"
  top: "conv4_1"
}
layer {
  name: "conv4_2"
  type: "Convolution"
  bottom: "conv4_1"
  top: "conv4_2"
  param {
    lr_mult: 1
    decay_mult: 1
  }
  param {
    lr_mult: 2
    decay_mult: 0
  }
  convolution_param {
    num_output: 512
    pad: 1
    kernel_size: 3
  }
}
layer {
  name: "relu4_2"
  type: "ReLU"
  bottom: "conv4_2"
  top: "conv4_2"
}
layer {
  name: "conv4_3"
  type: "Convolution"
  bottom: "conv4_2"
  top: "conv4_3"
  param {
    lr_mult: 1
    decay_mult: 1
  }
  param {
    lr_mult: 2
    decay_mult: 0
  }
  convolution_param {
    num_output: 512
    pad: 1
    kernel_size: 3
  }
}
layer {
  name: "relu4_3"
  type: "ReLU"
  bottom: "conv4_3"
  top: "conv4_3"
}
layer {
  name: "pool4"
  type: "Pooling"
  bottom: "conv4_3"
  top: "pool4"
  pooling_param {
    pool: MAX
    kernel_size: 2
    stride: 2
  }
}
layer {
  name: "conv5_1"
  type: "Convolution"
  bottom: "pool4"
  top: "conv5_1"
  param {
    lr_mult: 1
    decay_mult: 1
  }
  param {
    lr_mult: 2
    decay_mult: 0
  }
  convolution_param {
    num_output: 512
    pad: 1
    kernel_size: 3
  }
}
layer {
  name: "relu5_1"
  type: "ReLU"
  bottom: "conv5_1"
  top: "conv5_1"
}
layer {
  name: "conv5_2"
  type: "Convolution"
  bottom: "conv5_1"
  top: "conv5_2"
  param {
    lr_mult: 1
    decay_mult: 1
  }
  param {
    lr_mult: 2
    decay_mult: 0
  }
  convolution_param {
    num_output: 512
    pad: 1
    kernel_size: 3
  }
}
layer {
  name: "relu5_2"
  type: "ReLU"
  bottom: "conv5_2"
  top: "conv5_2"
}
layer {
  name: "conv5_3"
  type: "Convolution"
  bottom: "conv5_2"
  top: "conv5_3"
  param {
    lr_mult: 1
    decay_mult: 1
  }
  param {
    lr_mult: 2
    decay_mult: 0
  }
  convolution_param {
    num_output: 512
    pad: 1
    kernel_size: 3
  }
}
layer {
  name: "relu5_3"
  type: "ReLU"
  bottom: "conv5_3"
  top: "conv5_3"
}
layer {
  name: "rpn_conv/3x3"
  type: "Convolution"
  bottom: "conv5_3"
  top: "rpn/output"
  param {
    lr_mult: 1
    decay_mult: 1
  }
  param {
    lr_mult: 2
    decay_mult: 0
  }
  convolution_param {
    num_output: 512
    pad: 1
    kernel_size: 3
    stride: 1
    weight_filler {
      type: "gaussian"
      std: 0.01
    }
    bias_filler {
      type: "constant"
      value: 0
    }
  }
}
layer {
  name: "rpn_relu/3x3"
  type: "ReLU"
  bottom: "rpn/output"
  top: "rpn/output"
}
layer {
  name: "rpn_cls_score"
  type: "Convolution"
  bottom: "rpn/output"
  top: "rpn_cls_score"
  param {
    lr_mult: 1
    decay_mult: 1
  }
  param {
    lr_mult: 2
    decay_mult: 0
  }
  convolution_param {
    num_output: 18
    pad: 0
    kernel_size: 1
    stride: 1
    weight_filler {
      type: "gaussian"
      std: 0.01
    }
    bias_filler {
      type: "constant"
      value: 0
    }
  }
}
layer {
  name: "rpn_bbox_pred"
  type: "Convolution"
  bottom: "rpn/output"
  top: "rpn_bbox_pred"
  param {
    lr_mult: 1
    decay_mult: 1
  }
  param {
    lr_mult: 2
    decay_mult: 0
  }
  convolution_param {
    num_output: 36
    pad: 0
    kernel_size: 1
    stride: 1
    weight_filler {
      type: "gaussian"
      std: 0.01
    }
    bias_filler {
      type: "constant"
      value: 0
    }
  }
}
layer {
  name: "rpn_cls_score_reshape"
  type: "Reshape"
  bottom: "rpn_cls_score"
  top: "rpn_cls_score_reshape"
  reshape_param {
    shape {
      dim: 0
      dim: 2
      dim: -1
      dim: 0
    }
  }
}
layer {
  name: "rpn_cls_prob"
  type: "Softmax"
  bottom: "rpn_cls_score_reshape"
  top: "rpn_cls_prob"
}
layer {
  name: "rpn_cls_prob_reshape"
  type: "Reshape"
  bottom: "rpn_cls_prob"
  top: "rpn_cls_prob_reshape"
  reshape_param {
    shape {
      dim: 0
      dim: 18
      dim: -1
      dim: 0
    }
  }
}
layer {
  name: "proposal"
  type: "Python"
  bottom: "rpn_cls_prob_reshape"
  bottom: "rpn_bbox_pred"
  bottom: "im_info"
  top: "rois"
  python_param {
    module: "rpn.proposal_layer"
    layer: "ProposalLayer"
    param_str: "\'feat_stride\': 16"
  }
}
layer {
  name: "roi_pool5"
  type: "ROIPooling"
  bottom: "conv5_3"
  bottom: "rois"
  top: "pool5"
  roi_pooling_param {
    pooled_h: 7
    pooled_w: 7
    spatial_scale: 0.0625
  }
}
layer {
  name: "fc6"
  type: "InnerProduct"
  bottom: "pool5"
  top: "fc6"
  param {
    lr_mult: 1
    decay_mult: 1
  }
  param {
    lr_mult: 2
    decay_mult: 0
  }
  inner_product_param {
    num_output: 4096
  }
}
layer {
  name: "relu6"
  type: "ReLU"
  bottom: "fc6"
  top: "fc6"
}
layer {
  name: "drop6"
  type: "Dropout"
  bottom: "fc6"
  top: "fc6"
  dropout_param {
    dropout_ratio: 0.5
  }
}
layer {
  name: "fc7"
  type: "InnerProduct"
  bottom: "fc6"
  top: "fc7"
  param {
    lr_mult: 1
    decay_mult: 1
  }
  param {
    lr_mult: 2
    decay_mult: 0
  }
  inner_product_param {
    num_output: 4096
  }
}
layer {
  name: "relu7"
  type: "ReLU"
  bottom: "fc7"
  top: "fc7"
}
layer {
  name: "drop7"
  type: "Dropout"
  bottom: "fc7"
  top: "fc7"
  dropout_param {
    dropout_ratio: 0.5
  }
}
layer {
  name: "cls_score"
  type: "InnerProduct"
  bottom: "fc7"
  top: "cls_score"
  param {
    lr_mult: 1
    decay_mult: 1
  }
  param {
    lr_mult: 2
    decay_mult: 0
  }
  inner_product_param {
    num_output: 2
    weight_filler {
      type: "gaussian"
      std: 0.01
    }
    bias_filler {
      type: "constant"
      value: 0
    }
  }
}
layer {
  name: "bbox_pred"
  type: "InnerProduct"
  bottom: "fc7"
  top: "bbox_pred"
  param {
    lr_mult: 1
    decay_mult: 1
  }
  param {
    lr_mult: 2
    decay_mult: 0
  }
  inner_product_param {
    num_output: 8
    weight_filler {
      type: "gaussian"
      std: 0.001
    }
    bias_filler {
      type: "constant"
      value: 0
    }
  }
}
layer {
  name: "cls_prob"
  type: "Softmax"
  bottom: "cls_score"
  top: "cls_prob"
}
I0101 08:41:19.317420  3884 layer_factory.hpp:77] Creating layer input
I0101 08:41:19.317425  3884 net.cpp:100] Creating Layer input
I0101 08:41:19.317431  3884 net.cpp:408] input -> data
I0101 08:41:19.317437  3884 net.cpp:408] input -> im_info
I0101 08:41:19.502321  3884 net.cpp:150] Setting up input
I0101 08:41:19.502375  3884 net.cpp:157] Top shape: 1 3 224 224 (150528)
I0101 08:41:19.502391  3884 net.cpp:157] Top shape: 1 3 (3)
I0101 08:41:19.502398  3884 net.cpp:165] Memory required for data: 602124
I0101 08:41:19.502413  3884 layer_factory.hpp:77] Creating layer conv1_1
I0101 08:41:19.502460  3884 net.cpp:100] Creating Layer conv1_1
I0101 08:41:19.502470  3884 net.cpp:434] conv1_1 <- data
I0101 08:41:19.502488  3884 net.cpp:408] conv1_1 -> conv1_1
I0101 08:41:19.674002  3884 net.cpp:150] Setting up conv1_1
I0101 08:41:19.674036  3884 net.cpp:157] Top shape: 1 64 224 224 (3211264)
I0101 08:41:19.674039  3884 net.cpp:165] Memory required for data: 13447180
I0101 08:41:19.674064  3884 layer_factory.hpp:77] Creating layer relu1_1
I0101 08:41:19.674077  3884 net.cpp:100] Creating Layer relu1_1
I0101 08:41:19.674078  3884 net.cpp:434] relu1_1 <- conv1_1
I0101 08:41:19.674082  3884 net.cpp:395] relu1_1 -> conv1_1 (in-place)
I0101 08:41:19.674187  3884 net.cpp:150] Setting up relu1_1
I0101 08:41:19.674192  3884 net.cpp:157] Top shape: 1 64 224 224 (3211264)
I0101 08:41:19.674195  3884 net.cpp:165] Memory required for data: 26292236
I0101 08:41:19.674196  3884 layer_factory.hpp:77] Creating layer conv1_2
I0101 08:41:19.674202  3884 net.cpp:100] Creating Layer conv1_2
I0101 08:41:19.674204  3884 net.cpp:434] conv1_2 <- conv1_1
I0101 08:41:19.674207  3884 net.cpp:408] conv1_2 -> conv1_2
I0101 08:41:19.674790  3884 net.cpp:150] Setting up conv1_2
I0101 08:41:19.674798  3884 net.cpp:157] Top shape: 1 64 224 224 (3211264)
I0101 08:41:19.674813  3884 net.cpp:165] Memory required for data: 39137292
I0101 08:41:19.674818  3884 layer_factory.hpp:77] Creating layer relu1_2
I0101 08:41:19.674823  3884 net.cpp:100] Creating Layer relu1_2
I0101 08:41:19.674824  3884 net.cpp:434] relu1_2 <- conv1_2
I0101 08:41:19.674827  3884 net.cpp:395] relu1_2 -> conv1_2 (in-place)
I0101 08:41:19.674935  3884 net.cpp:150] Setting up relu1_2
I0101 08:41:19.674939  3884 net.cpp:157] Top shape: 1 64 224 224 (3211264)
I0101 08:41:19.674942  3884 net.cpp:165] Memory required for data: 51982348
I0101 08:41:19.674942  3884 layer_factory.hpp:77] Creating layer pool1
I0101 08:41:19.674947  3884 net.cpp:100] Creating Layer pool1
I0101 08:41:19.674948  3884 net.cpp:434] pool1 <- conv1_2
I0101 08:41:19.674950  3884 net.cpp:408] pool1 -> pool1
I0101 08:41:19.675000  3884 net.cpp:150] Setting up pool1
I0101 08:41:19.675004  3884 net.cpp:157] Top shape: 1 64 112 112 (802816)
I0101 08:41:19.675005  3884 net.cpp:165] Memory required for data: 55193612
I0101 08:41:19.675007  3884 layer_factory.hpp:77] Creating layer conv2_1
I0101 08:41:19.675011  3884 net.cpp:100] Creating Layer conv2_1
I0101 08:41:19.675014  3884 net.cpp:434] conv2_1 <- pool1
I0101 08:41:19.675016  3884 net.cpp:408] conv2_1 -> conv2_1
I0101 08:41:19.676623  3884 net.cpp:150] Setting up conv2_1
I0101 08:41:19.676632  3884 net.cpp:157] Top shape: 1 128 112 112 (1605632)
I0101 08:41:19.676648  3884 net.cpp:165] Memory required for data: 61616140
I0101 08:41:19.676654  3884 layer_factory.hpp:77] Creating layer relu2_1
I0101 08:41:19.676658  3884 net.cpp:100] Creating Layer relu2_1
I0101 08:41:19.676661  3884 net.cpp:434] relu2_1 <- conv2_1
I0101 08:41:19.676663  3884 net.cpp:395] relu2_1 -> conv2_1 (in-place)
I0101 08:41:19.676924  3884 net.cpp:150] Setting up relu2_1
I0101 08:41:19.676930  3884 net.cpp:157] Top shape: 1 128 112 112 (1605632)
I0101 08:41:19.676947  3884 net.cpp:165] Memory required for data: 68038668
I0101 08:41:19.676949  3884 layer_factory.hpp:77] Creating layer conv2_2
I0101 08:41:19.676954  3884 net.cpp:100] Creating Layer conv2_2
I0101 08:41:19.676956  3884 net.cpp:434] conv2_2 <- conv2_1
I0101 08:41:19.676959  3884 net.cpp:408] conv2_2 -> conv2_2
I0101 08:41:19.677698  3884 net.cpp:150] Setting up conv2_2
I0101 08:41:19.677706  3884 net.cpp:157] Top shape: 1 128 112 112 (1605632)
I0101 08:41:19.677722  3884 net.cpp:165] Memory required for data: 74461196
I0101 08:41:19.677726  3884 layer_factory.hpp:77] Creating layer relu2_2
I0101 08:41:19.677729  3884 net.cpp:100] Creating Layer relu2_2
I0101 08:41:19.677731  3884 net.cpp:434] relu2_2 <- conv2_2
I0101 08:41:19.677733  3884 net.cpp:395] relu2_2 -> conv2_2 (in-place)
I0101 08:41:19.677852  3884 net.cpp:150] Setting up relu2_2
I0101 08:41:19.677857  3884 net.cpp:157] Top shape: 1 128 112 112 (1605632)
I0101 08:41:19.677858  3884 net.cpp:165] Memory required for data: 80883724
I0101 08:41:19.677860  3884 layer_factory.hpp:77] Creating layer pool2
I0101 08:41:19.677876  3884 net.cpp:100] Creating Layer pool2
I0101 08:41:19.677877  3884 net.cpp:434] pool2 <- conv2_2
I0101 08:41:19.677881  3884 net.cpp:408] pool2 -> pool2
I0101 08:41:19.677919  3884 net.cpp:150] Setting up pool2
I0101 08:41:19.677923  3884 net.cpp:157] Top shape: 1 128 56 56 (401408)
I0101 08:41:19.677924  3884 net.cpp:165] Memory required for data: 82489356
I0101 08:41:19.677927  3884 layer_factory.hpp:77] Creating layer conv3_1
I0101 08:41:19.677932  3884 net.cpp:100] Creating Layer conv3_1
I0101 08:41:19.677932  3884 net.cpp:434] conv3_1 <- pool2
I0101 08:41:19.677935  3884 net.cpp:408] conv3_1 -> conv3_1
I0101 08:41:19.678779  3884 net.cpp:150] Setting up conv3_1
I0101 08:41:19.678786  3884 net.cpp:157] Top shape: 1 256 56 56 (802816)
I0101 08:41:19.678802  3884 net.cpp:165] Memory required for data: 85700620
I0101 08:41:19.678808  3884 layer_factory.hpp:77] Creating layer relu3_1
I0101 08:41:19.678812  3884 net.cpp:100] Creating Layer relu3_1
I0101 08:41:19.678813  3884 net.cpp:434] relu3_1 <- conv3_1
I0101 08:41:19.678817  3884 net.cpp:395] relu3_1 -> conv3_1 (in-place)
I0101 08:41:19.678935  3884 net.cpp:150] Setting up relu3_1
I0101 08:41:19.678939  3884 net.cpp:157] Top shape: 1 256 56 56 (802816)
I0101 08:41:19.678941  3884 net.cpp:165] Memory required for data: 88911884
I0101 08:41:19.678957  3884 layer_factory.hpp:77] Creating layer conv3_2
I0101 08:41:19.678961  3884 net.cpp:100] Creating Layer conv3_2
I0101 08:41:19.678963  3884 net.cpp:434] conv3_2 <- conv3_1
I0101 08:41:19.678966  3884 net.cpp:408] conv3_2 -> conv3_2
I0101 08:41:19.680421  3884 net.cpp:150] Setting up conv3_2
I0101 08:41:19.680429  3884 net.cpp:157] Top shape: 1 256 56 56 (802816)
I0101 08:41:19.680446  3884 net.cpp:165] Memory required for data: 92123148
I0101 08:41:19.680450  3884 layer_factory.hpp:77] Creating layer relu3_2
I0101 08:41:19.680454  3884 net.cpp:100] Creating Layer relu3_2
I0101 08:41:19.680456  3884 net.cpp:434] relu3_2 <- conv3_2
I0101 08:41:19.680459  3884 net.cpp:395] relu3_2 -> conv3_2 (in-place)
I0101 08:41:19.680591  3884 net.cpp:150] Setting up relu3_2
I0101 08:41:19.680596  3884 net.cpp:157] Top shape: 1 256 56 56 (802816)
I0101 08:41:19.680598  3884 net.cpp:165] Memory required for data: 95334412
I0101 08:41:19.680599  3884 layer_factory.hpp:77] Creating layer conv3_3
I0101 08:41:19.680619  3884 net.cpp:100] Creating Layer conv3_3
I0101 08:41:19.680621  3884 net.cpp:434] conv3_3 <- conv3_2
I0101 08:41:19.680624  3884 net.cpp:408] conv3_3 -> conv3_3
I0101 08:41:19.682056  3884 net.cpp:150] Setting up conv3_3
I0101 08:41:19.682065  3884 net.cpp:157] Top shape: 1 256 56 56 (802816)
I0101 08:41:19.682081  3884 net.cpp:165] Memory required for data: 98545676
I0101 08:41:19.682085  3884 layer_factory.hpp:77] Creating layer relu3_3
I0101 08:41:19.682104  3884 net.cpp:100] Creating Layer relu3_3
I0101 08:41:19.682106  3884 net.cpp:434] relu3_3 <- conv3_3
I0101 08:41:19.682109  3884 net.cpp:395] relu3_3 -> conv3_3 (in-place)
I0101 08:41:19.682214  3884 net.cpp:150] Setting up relu3_3
I0101 08:41:19.682219  3884 net.cpp:157] Top shape: 1 256 56 56 (802816)
I0101 08:41:19.682221  3884 net.cpp:165] Memory required for data: 101756940
I0101 08:41:19.682222  3884 layer_factory.hpp:77] Creating layer pool3
I0101 08:41:19.682226  3884 net.cpp:100] Creating Layer pool3
I0101 08:41:19.682227  3884 net.cpp:434] pool3 <- conv3_3
I0101 08:41:19.682230  3884 net.cpp:408] pool3 -> pool3
I0101 08:41:19.682270  3884 net.cpp:150] Setting up pool3
I0101 08:41:19.682274  3884 net.cpp:157] Top shape: 1 256 28 28 (200704)
I0101 08:41:19.682276  3884 net.cpp:165] Memory required for data: 102559756
I0101 08:41:19.682277  3884 layer_factory.hpp:77] Creating layer conv4_1
I0101 08:41:19.682281  3884 net.cpp:100] Creating Layer conv4_1
I0101 08:41:19.682282  3884 net.cpp:434] conv4_1 <- pool3
I0101 08:41:19.682286  3884 net.cpp:408] conv4_1 -> conv4_1
I0101 08:41:19.684911  3884 net.cpp:150] Setting up conv4_1
I0101 08:41:19.684927  3884 net.cpp:157] Top shape: 1 512 28 28 (401408)
I0101 08:41:19.684929  3884 net.cpp:165] Memory required for data: 104165388
I0101 08:41:19.684937  3884 layer_factory.hpp:77] Creating layer relu4_1
I0101 08:41:19.684947  3884 net.cpp:100] Creating Layer relu4_1
I0101 08:41:19.684950  3884 net.cpp:434] relu4_1 <- conv4_1
I0101 08:41:19.684955  3884 net.cpp:395] relu4_1 -> conv4_1 (in-place)
I0101 08:41:19.685086  3884 net.cpp:150] Setting up relu4_1
I0101 08:41:19.685091  3884 net.cpp:157] Top shape: 1 512 28 28 (401408)
I0101 08:41:19.685093  3884 net.cpp:165] Memory required for data: 105771020
I0101 08:41:19.685096  3884 layer_factory.hpp:77] Creating layer conv4_2
I0101 08:41:19.685101  3884 net.cpp:100] Creating Layer conv4_2
I0101 08:41:19.685103  3884 net.cpp:434] conv4_2 <- conv4_1
I0101 08:41:19.685106  3884 net.cpp:408] conv4_2 -> conv4_2
I0101 08:41:19.688799  3884 net.cpp:150] Setting up conv4_2
I0101 08:41:19.688832  3884 net.cpp:157] Top shape: 1 512 28 28 (401408)
I0101 08:41:19.688833  3884 net.cpp:165] Memory required for data: 107376652
I0101 08:41:19.688859  3884 layer_factory.hpp:77] Creating layer relu4_2
I0101 08:41:19.688869  3884 net.cpp:100] Creating Layer relu4_2
I0101 08:41:19.688872  3884 net.cpp:434] relu4_2 <- conv4_2
I0101 08:41:19.688879  3884 net.cpp:395] relu4_2 -> conv4_2 (in-place)
I0101 08:41:19.689147  3884 net.cpp:150] Setting up relu4_2
I0101 08:41:19.689153  3884 net.cpp:157] Top shape: 1 512 28 28 (401408)
I0101 08:41:19.689170  3884 net.cpp:165] Memory required for data: 108982284
I0101 08:41:19.689172  3884 layer_factory.hpp:77] Creating layer conv4_3
I0101 08:41:19.689178  3884 net.cpp:100] Creating Layer conv4_3
I0101 08:41:19.689180  3884 net.cpp:434] conv4_3 <- conv4_2
I0101 08:41:19.689183  3884 net.cpp:408] conv4_3 -> conv4_3
I0101 08:41:19.692777  3884 net.cpp:150] Setting up conv4_3
I0101 08:41:19.692811  3884 net.cpp:157] Top shape: 1 512 28 28 (401408)
I0101 08:41:19.692813  3884 net.cpp:165] Memory required for data: 110587916
I0101 08:41:19.692833  3884 layer_factory.hpp:77] Creating layer relu4_3
I0101 08:41:19.692842  3884 net.cpp:100] Creating Layer relu4_3
I0101 08:41:19.692844  3884 net.cpp:434] relu4_3 <- conv4_3
I0101 08:41:19.692849  3884 net.cpp:395] relu4_3 -> conv4_3 (in-place)
I0101 08:41:19.692957  3884 net.cpp:150] Setting up relu4_3
I0101 08:41:19.692962  3884 net.cpp:157] Top shape: 1 512 28 28 (401408)
I0101 08:41:19.692963  3884 net.cpp:165] Memory required for data: 112193548
I0101 08:41:19.692965  3884 layer_factory.hpp:77] Creating layer pool4
I0101 08:41:19.692968  3884 net.cpp:100] Creating Layer pool4
I0101 08:41:19.692970  3884 net.cpp:434] pool4 <- conv4_3
I0101 08:41:19.692973  3884 net.cpp:408] pool4 -> pool4
I0101 08:41:19.693027  3884 net.cpp:150] Setting up pool4
I0101 08:41:19.693030  3884 net.cpp:157] Top shape: 1 512 14 14 (100352)
I0101 08:41:19.693032  3884 net.cpp:165] Memory required for data: 112594956
I0101 08:41:19.693033  3884 layer_factory.hpp:77] Creating layer conv5_1
I0101 08:41:19.693038  3884 net.cpp:100] Creating Layer conv5_1
I0101 08:41:19.693040  3884 net.cpp:434] conv5_1 <- pool4
I0101 08:41:19.693044  3884 net.cpp:408] conv5_1 -> conv5_1
I0101 08:41:19.696646  3884 net.cpp:150] Setting up conv5_1
I0101 08:41:19.696678  3884 net.cpp:157] Top shape: 1 512 14 14 (100352)
I0101 08:41:19.696681  3884 net.cpp:165] Memory required for data: 112996364
I0101 08:41:19.696688  3884 layer_factory.hpp:77] Creating layer relu5_1
I0101 08:41:19.696709  3884 net.cpp:100] Creating Layer relu5_1
I0101 08:41:19.696712  3884 net.cpp:434] relu5_1 <- conv5_1
I0101 08:41:19.696718  3884 net.cpp:395] relu5_1 -> conv5_1 (in-place)
I0101 08:41:19.696832  3884 net.cpp:150] Setting up relu5_1
I0101 08:41:19.696837  3884 net.cpp:157] Top shape: 1 512 14 14 (100352)
I0101 08:41:19.696840  3884 net.cpp:165] Memory required for data: 113397772
I0101 08:41:19.696841  3884 layer_factory.hpp:77] Creating layer conv5_2
I0101 08:41:19.696846  3884 net.cpp:100] Creating Layer conv5_2
I0101 08:41:19.696848  3884 net.cpp:434] conv5_2 <- conv5_1
I0101 08:41:19.696851  3884 net.cpp:408] conv5_2 -> conv5_2
I0101 08:41:19.700464  3884 net.cpp:150] Setting up conv5_2
I0101 08:41:19.700489  3884 net.cpp:157] Top shape: 1 512 14 14 (100352)
I0101 08:41:19.700490  3884 net.cpp:165] Memory required for data: 113799180
I0101 08:41:19.700497  3884 layer_factory.hpp:77] Creating layer relu5_2
I0101 08:41:19.700506  3884 net.cpp:100] Creating Layer relu5_2
I0101 08:41:19.700510  3884 net.cpp:434] relu5_2 <- conv5_2
I0101 08:41:19.700515  3884 net.cpp:395] relu5_2 -> conv5_2 (in-place)
I0101 08:41:19.700634  3884 net.cpp:150] Setting up relu5_2
I0101 08:41:19.700640  3884 net.cpp:157] Top shape: 1 512 14 14 (100352)
I0101 08:41:19.700641  3884 net.cpp:165] Memory required for data: 114200588
I0101 08:41:19.700644  3884 layer_factory.hpp:77] Creating layer conv5_3
I0101 08:41:19.700649  3884 net.cpp:100] Creating Layer conv5_3
I0101 08:41:19.700651  3884 net.cpp:434] conv5_3 <- conv5_2
I0101 08:41:19.700654  3884 net.cpp:408] conv5_3 -> conv5_3
I0101 08:41:19.704282  3884 net.cpp:150] Setting up conv5_3
I0101 08:41:19.704313  3884 net.cpp:157] Top shape: 1 512 14 14 (100352)
I0101 08:41:19.704315  3884 net.cpp:165] Memory required for data: 114601996
I0101 08:41:19.704322  3884 layer_factory.hpp:77] Creating layer relu5_3
I0101 08:41:19.704329  3884 net.cpp:100] Creating Layer relu5_3
I0101 08:41:19.704331  3884 net.cpp:434] relu5_3 <- conv5_3
I0101 08:41:19.704337  3884 net.cpp:395] relu5_3 -> conv5_3 (in-place)
I0101 08:41:19.704486  3884 net.cpp:150] Setting up relu5_3
I0101 08:41:19.704491  3884 net.cpp:157] Top shape: 1 512 14 14 (100352)
I0101 08:41:19.704493  3884 net.cpp:165] Memory required for data: 115003404
I0101 08:41:19.704509  3884 layer_factory.hpp:77] Creating layer conv5_3_relu5_3_0_split
I0101 08:41:19.704514  3884 net.cpp:100] Creating Layer conv5_3_relu5_3_0_split
I0101 08:41:19.704515  3884 net.cpp:434] conv5_3_relu5_3_0_split <- conv5_3
I0101 08:41:19.704517  3884 net.cpp:408] conv5_3_relu5_3_0_split -> conv5_3_relu5_3_0_split_0
I0101 08:41:19.704522  3884 net.cpp:408] conv5_3_relu5_3_0_split -> conv5_3_relu5_3_0_split_1
I0101 08:41:19.704550  3884 net.cpp:150] Setting up conv5_3_relu5_3_0_split
I0101 08:41:19.704552  3884 net.cpp:157] Top shape: 1 512 14 14 (100352)
I0101 08:41:19.704555  3884 net.cpp:157] Top shape: 1 512 14 14 (100352)
I0101 08:41:19.704556  3884 net.cpp:165] Memory required for data: 115806220
I0101 08:41:19.704557  3884 layer_factory.hpp:77] Creating layer rpn_conv/3x3
I0101 08:41:19.704568  3884 net.cpp:100] Creating Layer rpn_conv/3x3
I0101 08:41:19.704571  3884 net.cpp:434] rpn_conv/3x3 <- conv5_3_relu5_3_0_split_0
I0101 08:41:19.704573  3884 net.cpp:408] rpn_conv/3x3 -> rpn/output
I0101 08:41:19.721887  3884 net.cpp:150] Setting up rpn_conv/3x3
I0101 08:41:19.721920  3884 net.cpp:157] Top shape: 1 512 14 14 (100352)
I0101 08:41:19.721921  3884 net.cpp:165] Memory required for data: 116207628
I0101 08:41:19.721928  3884 layer_factory.hpp:77] Creating layer rpn_relu/3x3
I0101 08:41:19.721936  3884 net.cpp:100] Creating Layer rpn_relu/3x3
I0101 08:41:19.721940  3884 net.cpp:434] rpn_relu/3x3 <- rpn/output
I0101 08:41:19.721943  3884 net.cpp:395] rpn_relu/3x3 -> rpn/output (in-place)
I0101 08:41:19.722084  3884 net.cpp:150] Setting up rpn_relu/3x3
I0101 08:41:19.722087  3884 net.cpp:157] Top shape: 1 512 14 14 (100352)
I0101 08:41:19.722090  3884 net.cpp:165] Memory required for data: 116609036
I0101 08:41:19.722105  3884 layer_factory.hpp:77] Creating layer rpn/output_rpn_relu/3x3_0_split
I0101 08:41:19.722110  3884 net.cpp:100] Creating Layer rpn/output_rpn_relu/3x3_0_split
I0101 08:41:19.722111  3884 net.cpp:434] rpn/output_rpn_relu/3x3_0_split <- rpn/output
I0101 08:41:19.722115  3884 net.cpp:408] rpn/output_rpn_relu/3x3_0_split -> rpn/output_rpn_relu/3x3_0_split_0
I0101 08:41:19.722118  3884 net.cpp:408] rpn/output_rpn_relu/3x3_0_split -> rpn/output_rpn_relu/3x3_0_split_1
I0101 08:41:19.722146  3884 net.cpp:150] Setting up rpn/output_rpn_relu/3x3_0_split
I0101 08:41:19.722151  3884 net.cpp:157] Top shape: 1 512 14 14 (100352)
I0101 08:41:19.722152  3884 net.cpp:157] Top shape: 1 512 14 14 (100352)
I0101 08:41:19.722153  3884 net.cpp:165] Memory required for data: 117411852
I0101 08:41:19.722156  3884 layer_factory.hpp:77] Creating layer rpn_cls_score
I0101 08:41:19.722162  3884 net.cpp:100] Creating Layer rpn_cls_score
I0101 08:41:19.722164  3884 net.cpp:434] rpn_cls_score <- rpn/output_rpn_relu/3x3_0_split_0
I0101 08:41:19.722167  3884 net.cpp:408] rpn_cls_score -> rpn_cls_score
I0101 08:41:19.723019  3884 net.cpp:150] Setting up rpn_cls_score
I0101 08:41:19.723026  3884 net.cpp:157] Top shape: 1 18 14 14 (3528)
I0101 08:41:19.723043  3884 net.cpp:165] Memory required for data: 117425964
I0101 08:41:19.723047  3884 layer_factory.hpp:77] Creating layer rpn_bbox_pred
I0101 08:41:19.723053  3884 net.cpp:100] Creating Layer rpn_bbox_pred
I0101 08:41:19.723055  3884 net.cpp:434] rpn_bbox_pred <- rpn/output_rpn_relu/3x3_0_split_1
I0101 08:41:19.723059  3884 net.cpp:408] rpn_bbox_pred -> rpn_bbox_pred
I0101 08:41:19.723821  3884 net.cpp:150] Setting up rpn_bbox_pred
I0101 08:41:19.723829  3884 net.cpp:157] Top shape: 1 36 14 14 (7056)
I0101 08:41:19.723846  3884 net.cpp:165] Memory required for data: 117454188
I0101 08:41:19.723850  3884 layer_factory.hpp:77] Creating layer rpn_cls_score_reshape
I0101 08:41:19.723855  3884 net.cpp:100] Creating Layer rpn_cls_score_reshape
I0101 08:41:19.723856  3884 net.cpp:434] rpn_cls_score_reshape <- rpn_cls_score
I0101 08:41:19.723860  3884 net.cpp:408] rpn_cls_score_reshape -> rpn_cls_score_reshape
I0101 08:41:19.723901  3884 net.cpp:150] Setting up rpn_cls_score_reshape
I0101 08:41:19.723904  3884 net.cpp:157] Top shape: 1 2 126 14 (3528)
I0101 08:41:19.723906  3884 net.cpp:165] Memory required for data: 117468300
I0101 08:41:19.723907  3884 layer_factory.hpp:77] Creating layer rpn_cls_prob
I0101 08:41:19.723912  3884 net.cpp:100] Creating Layer rpn_cls_prob
I0101 08:41:19.723912  3884 net.cpp:434] rpn_cls_prob <- rpn_cls_score_reshape
I0101 08:41:19.723915  3884 net.cpp:408] rpn_cls_prob -> rpn_cls_prob
I0101 08:41:19.724241  3884 net.cpp:150] Setting up rpn_cls_prob
I0101 08:41:19.724259  3884 net.cpp:157] Top shape: 1 2 126 14 (3528)
I0101 08:41:19.724261  3884 net.cpp:165] Memory required for data: 117482412
I0101 08:41:19.724278  3884 layer_factory.hpp:77] Creating layer rpn_cls_prob_reshape
I0101 08:41:19.724282  3884 net.cpp:100] Creating Layer rpn_cls_prob_reshape
I0101 08:41:19.724284  3884 net.cpp:434] rpn_cls_prob_reshape <- rpn_cls_prob
I0101 08:41:19.724287  3884 net.cpp:408] rpn_cls_prob_reshape -> rpn_cls_prob_reshape
I0101 08:41:19.724303  3884 net.cpp:150] Setting up rpn_cls_prob_reshape
I0101 08:41:19.724306  3884 net.cpp:157] Top shape: 1 18 14 14 (3528)
I0101 08:41:19.724308  3884 net.cpp:165] Memory required for data: 117496524
I0101 08:41:19.724309  3884 layer_factory.hpp:77] Creating layer proposal
I0101 08:41:19.746068  3884 net.cpp:100] Creating Layer proposal
I0101 08:41:19.746076  3884 net.cpp:434] proposal <- rpn_cls_prob_reshape
I0101 08:41:19.746094  3884 net.cpp:434] proposal <- rpn_bbox_pred
I0101 08:41:19.746096  3884 net.cpp:434] proposal <- im_info
I0101 08:41:19.746100  3884 net.cpp:408] proposal -> rois
I0101 08:41:19.746541  3884 net.cpp:150] Setting up proposal
I0101 08:41:19.746549  3884 net.cpp:157] Top shape: 1 5 (5)
I0101 08:41:19.746567  3884 net.cpp:165] Memory required for data: 117496544
I0101 08:41:19.746568  3884 layer_factory.hpp:77] Creating layer roi_pool5
I0101 08:41:19.746572  3884 net.cpp:100] Creating Layer roi_pool5
I0101 08:41:19.746573  3884 net.cpp:434] roi_pool5 <- conv5_3_relu5_3_0_split_1
I0101 08:41:19.746577  3884 net.cpp:434] roi_pool5 <- rois
I0101 08:41:19.746579  3884 net.cpp:408] roi_pool5 -> pool5
I0101 08:41:19.746583  3884 roi_pooling_layer.cpp:30] Spatial scale: 0.0625
I0101 08:41:19.746614  3884 net.cpp:150] Setting up roi_pool5
I0101 08:41:19.746618  3884 net.cpp:157] Top shape: 1 512 7 7 (25088)
I0101 08:41:19.746618  3884 net.cpp:165] Memory required for data: 117596896
I0101 08:41:19.746620  3884 layer_factory.hpp:77] Creating layer fc6
I0101 08:41:19.746624  3884 net.cpp:100] Creating Layer fc6
I0101 08:41:19.746625  3884 net.cpp:434] fc6 <- pool5
I0101 08:41:19.746628  3884 net.cpp:408] fc6 -> fc6
I0101 08:41:19.886870  3884 net.cpp:150] Setting up fc6
I0101 08:41:19.886905  3884 net.cpp:157] Top shape: 1 4096 (4096)
I0101 08:41:19.886907  3884 net.cpp:165] Memory required for data: 117613280
I0101 08:41:19.886924  3884 layer_factory.hpp:77] Creating layer relu6
I0101 08:41:19.886934  3884 net.cpp:100] Creating Layer relu6
I0101 08:41:19.886936  3884 net.cpp:434] relu6 <- fc6
I0101 08:41:19.886940  3884 net.cpp:395] relu6 -> fc6 (in-place)
I0101 08:41:19.887140  3884 net.cpp:150] Setting up relu6
I0101 08:41:19.887145  3884 net.cpp:157] Top shape: 1 4096 (4096)
I0101 08:41:19.887146  3884 net.cpp:165] Memory required for data: 117629664
I0101 08:41:19.887148  3884 layer_factory.hpp:77] Creating layer drop6
I0101 08:41:19.887153  3884 net.cpp:100] Creating Layer drop6
I0101 08:41:19.887156  3884 net.cpp:434] drop6 <- fc6
I0101 08:41:19.887157  3884 net.cpp:395] drop6 -> fc6 (in-place)
I0101 08:41:19.887177  3884 net.cpp:150] Setting up drop6
I0101 08:41:19.887181  3884 net.cpp:157] Top shape: 1 4096 (4096)
I0101 08:41:19.887182  3884 net.cpp:165] Memory required for data: 117646048
I0101 08:41:19.887184  3884 layer_factory.hpp:77] Creating layer fc7
I0101 08:41:19.887187  3884 net.cpp:100] Creating Layer fc7
I0101 08:41:19.887189  3884 net.cpp:434] fc7 <- fc6
I0101 08:41:19.887197  3884 net.cpp:408] fc7 -> fc7
I0101 08:41:19.909900  3884 net.cpp:150] Setting up fc7
I0101 08:41:19.909939  3884 net.cpp:157] Top shape: 1 4096 (4096)
I0101 08:41:19.909941  3884 net.cpp:165] Memory required for data: 117662432
I0101 08:41:19.909965  3884 layer_factory.hpp:77] Creating layer relu7
I0101 08:41:19.909976  3884 net.cpp:100] Creating Layer relu7
I0101 08:41:19.909977  3884 net.cpp:434] relu7 <- fc7
I0101 08:41:19.909983  3884 net.cpp:395] relu7 -> fc7 (in-place)
I0101 08:41:19.910162  3884 net.cpp:150] Setting up relu7
I0101 08:41:19.910166  3884 net.cpp:157] Top shape: 1 4096 (4096)
I0101 08:41:19.910168  3884 net.cpp:165] Memory required for data: 117678816
I0101 08:41:19.910184  3884 layer_factory.hpp:77] Creating layer drop7
I0101 08:41:19.910189  3884 net.cpp:100] Creating Layer drop7
I0101 08:41:19.910192  3884 net.cpp:434] drop7 <- fc7
I0101 08:41:19.910193  3884 net.cpp:395] drop7 -> fc7 (in-place)
I0101 08:41:19.910212  3884 net.cpp:150] Setting up drop7
I0101 08:41:19.910215  3884 net.cpp:157] Top shape: 1 4096 (4096)
I0101 08:41:19.910218  3884 net.cpp:165] Memory required for data: 117695200
I0101 08:41:19.910218  3884 layer_factory.hpp:77] Creating layer fc7_drop7_0_split
I0101 08:41:19.910221  3884 net.cpp:100] Creating Layer fc7_drop7_0_split
I0101 08:41:19.910223  3884 net.cpp:434] fc7_drop7_0_split <- fc7
I0101 08:41:19.910226  3884 net.cpp:408] fc7_drop7_0_split -> fc7_drop7_0_split_0
I0101 08:41:19.910230  3884 net.cpp:408] fc7_drop7_0_split -> fc7_drop7_0_split_1
I0101 08:41:19.910254  3884 net.cpp:150] Setting up fc7_drop7_0_split
I0101 08:41:19.910257  3884 net.cpp:157] Top shape: 1 4096 (4096)
I0101 08:41:19.910259  3884 net.cpp:157] Top shape: 1 4096 (4096)
I0101 08:41:19.910260  3884 net.cpp:165] Memory required for data: 117727968
I0101 08:41:19.910262  3884 layer_factory.hpp:77] Creating layer cls_score
I0101 08:41:19.910266  3884 net.cpp:100] Creating Layer cls_score
I0101 08:41:19.910269  3884 net.cpp:434] cls_score <- fc7_drop7_0_split_0
I0101 08:41:19.910272  3884 net.cpp:408] cls_score -> cls_score
I0101 08:41:19.910421  3884 net.cpp:150] Setting up cls_score
I0101 08:41:19.910425  3884 net.cpp:157] Top shape: 1 2 (2)
I0101 08:41:19.910426  3884 net.cpp:165] Memory required for data: 117727976
I0101 08:41:19.910429  3884 layer_factory.hpp:77] Creating layer bbox_pred
I0101 08:41:19.910447  3884 net.cpp:100] Creating Layer bbox_pred
I0101 08:41:19.910449  3884 net.cpp:434] bbox_pred <- fc7_drop7_0_split_1
I0101 08:41:19.910452  3884 net.cpp:408] bbox_pred -> bbox_pred
I0101 08:41:19.910749  3884 net.cpp:150] Setting up bbox_pred
I0101 08:41:19.910753  3884 net.cpp:157] Top shape: 1 8 (8)
I0101 08:41:19.910754  3884 net.cpp:165] Memory required for data: 117728008
I0101 08:41:19.910758  3884 layer_factory.hpp:77] Creating layer cls_prob
I0101 08:41:19.910775  3884 net.cpp:100] Creating Layer cls_prob
I0101 08:41:19.910778  3884 net.cpp:434] cls_prob <- cls_score
I0101 08:41:19.910780  3884 net.cpp:408] cls_prob -> cls_prob
I0101 08:41:19.910936  3884 net.cpp:150] Setting up cls_prob
I0101 08:41:19.910940  3884 net.cpp:157] Top shape: 1 2 (2)
I0101 08:41:19.910943  3884 net.cpp:165] Memory required for data: 117728016
I0101 08:41:19.910959  3884 net.cpp:228] cls_prob does not need backward computation.
I0101 08:41:19.910960  3884 net.cpp:228] bbox_pred does not need backward computation.
I0101 08:41:19.910962  3884 net.cpp:228] cls_score does not need backward computation.
I0101 08:41:19.910964  3884 net.cpp:228] fc7_drop7_0_split does not need backward computation.
…
